pytorch/fashion-mnist-cnn-fold-4.pt (torch, 697239 bytes, 6 tensors)

cnn.0.weight f4 [4, 1, 3, 3]
00000000: c27a 953e 1d42 90bc a4cc e03e c9fe 703e
00000010: 053b 953e 9638 433e 16b2 653e d627 b83e
00000020: 73de 1b3f 62d2 1dbe f10b 8f3e c1a3 90be
00000030: d1cf 35be a2bd 8abe dd32 62be 05f4 57be
00000040: 2ce1 0e3e 706a c9bd 7e4a a3be 7283 5f3e
00000050: e3e9 9d3b de68 a7bd 4e24 a9bd 2926 24bd
00000060: 6817 32be b251 c4bc 080a b13e 7ce2 1b3f
00000070: 95be 9f3e e70d efbd 5814 163f a54f 3b3e
00000080: 0040 acbd fefe 1d3f 41f4 e13e be84 df3d
0.2919522 -0.01760965 0.43906128 0.23534693 0.2914659 0.19064555 0.22431216 0.35967892
0.60886306 -0.15412286 0.27938798 -0.28249934 -0.17755057 -0.27097803 -0.22089715 -0.2108918
0.13953084 -0.098347545 -0.3189277 0.21827486 0.0048191412 -0.08174299 -0.08258878 -0.040075455
-0.17391741 -0.023964737 0.34577966 0.6089246 0.3120009 -0.116725735 0.5862479 0.182921
-0.084106445 0.6171721 0.44131663 0.109139904

cnn.0.bias f4 [4]
00000000: 6e72 c53e 30b5 f73e 2a31 86bd 169e 783c
0.38563865 0.48380423 -0.06552346 0.015174409

cnn.4.weight f4 [64, 2704]
00000000: 53cc 51bc c690 51bc 54c5 29bc 83ec 6e3c
00000010: ac58 2eb8 99b6 b03b 44f7 2b3c 85a7 82bb
00000020: bf5c 733c 3d75 25ba 8d73 233a 8793 293c
00000030: 4851 b53c da16 953c ad1a 5cbc e3cf 673c
00000040: 8a8e 5d3c bfa5 7f3c 6cf0 dabb dbcc 11ba
00000050: 2b69 483c 8a05 613c f48a 203c 9afb 95bb
00000060: 1a18 64bc c339 713c e9d4 a53c cb35 30bc
00000070: 12e2 7fbc 0bac 823c 9f28 8b3b 5cd4 a7bb
00000080: bb79 333c e778 213c bf84 8f3c 1ed7 57bc
00000090: e1fe 42bc a1e8 85bb 4c3f 653c 38e5 363c
000000a0: bc7a 0fbc aadc 9c3b 345c f5bb edb0 1bbc
000000b0: d191 8b3b 2000 3c3c 3aa1 193b 1013 29bc
000000c0: 0878 dd3b 3491 06bb 79b3 f3bb 7bc7 86bc
000000d0: 9c88 bb3b 4d85 9d3c 127b 1b3c ae6e babc
000000e0: f1a9 113c aeaf 2fbc f991 8ebc d88d 993c
000000f0: 9c59 09bc 5b4f 45bc 6114 853c 2fd9 0cbc
00000100: 7922 f23b ac60 c73c 689f a03c 4d86 3fba
00000110: 2f7d f5ba a8a7 693c 2751 0cbc adf9 3d3c
00000120: 1546 6fbc 7093 d03b eb44 08bc 212c dfbb
00000130: c65f a63c 71d1 3cbb 60f5 d4bb 77a0 8dbc
00000140: 48ad a9bb 2651 8ebc b38c 6f3b 87a2 b6bc
00000150: 3f6f 96bc 58e5 463c a2b0 32bc 8991 643c
00000160: 9a87 a63c b573 c03b 9baf 5f3c bf8b 703c
00000170: 01ce 8c3b 90d5 843c 04bb fdba 9076 333c
00000180: f685 1dbc f2d5 31bc 5c65 92bc d8a5 6b3c
00000190: 56cc 473c 48d5 43bb 831c 0f3c fb59 293c
000001a0: 8cb7 383c f819 983b 56d4 abbc 5529 abbb
000001b0: 061f 473c f824 753c 19d7 84bc a8cd 8e3c
000001c0: 58e1 4e3c 1c75 823b 81f5 eebb 8085 3ebb
000001d0: 961c c2ba 27e1 1ebb bf4c 553c d99e cc3c
000001e0: a0f3 a63c 1316 27ba 8849 3fbc 36d0 4abc
000001f0: 4ff5 553c 1994 33bc 7112 0dbc 8b54 eb3b
00000200: 61ca d6bb 9a2b 1b3c 5d87 973b 8f97 7d3c
00000210: 3873 0dbc fef3 47bc 9e6f 893b 9918 8abb
00000220: 2675 213c 526f 2c3c a199 41bc 58dc 943c
00000230: cc75 803c 1f95 953c 4d27 17bc c9fd 6d3c
00000240: b5b8 c53c c200 8c3c 521d 7f3b 5280 203c
00000250: d520 ecb9 2651 f13b 21eb 43bc edc3 83bc
00000260: b60b b9bb 6127 31bc 4e61 5cbc a7d3 a03b
00000270: 3114 943c c0fb a83b e2cc 01bc df3f 8ebb
00000280: 356a a6bc f110 93bb 0388 db3b 552c 823b
00000290: f848 b73b 676b 42bb c955 87bc 6573 ee3b
000002a0: f705 783c b74a b8bb 11d8 9a3c fc4c 6f3c
000002b0: 5674 f33b 714a 4d3c 7e78 e5b8 0e51 3abc
000002c0: 440f 413c 4f5b 7dbc 2e71 4abc a654 0bbc
000002d0: 7bef 12bc ee4b f23b c532 863c 8a14 ddbb
000002e0: af35 c0bc 0c7f 01bc 2b9f b9ba ae77 233c
000002f0: 1bd7 26bc f963 19bc a8cb 4e3c 192b 533c
00000300: 8c6e 3bbc 0ea2 043b e0e0 f2bb e3a5 953c
00000310: 97c3 893c 8637 16bc 776b 68bc 7cf6 eebb
00000320: f6f1 a73c b5f3 59bb 2125 57bc e7c6 663b
00000330: 66be 5fbc 582e 4a3b 36cf eabb 4e52 40bc
00000340: 8d71 643c d62b 3e3c db42 1fbc 2777 97bc
00000350: ec35 29bc 3ebc 55bb b559 61bc e42b a2bb
00000360: 1e42 75bc e855 39bc 1e37 1f3c c5b7 0cbc
00000370: 0c13 0dbc fb78 a0bb 7b44 0b3b 1379 63bc
00000380: 0fd6 f83b 175c dfba 71be 7ebc 6f9a ee3b
00000390: 7eee 9d3c a37c 8abb b56e 99ba f15d 713c
000003a0: 8583 a0bc 3ac2 643b b8d3 21bc 0de5 72bc
000003b0: 18e4 0bbc bead dfb9 c878 97bc cc2d 6a39
000003c0: d6d2 93bc 97fd 1ebc 8c9d af3a 8926 d1bb
000003d0: 1bf4 94ba 1d20 85bb 5bac 5fbc 93e3 9c3c
000003e0: ce61 693b 44d2 17bc 5e4d 8dbc ae9e 8e3c
000003f0: c579 323c 1257 993a c972 ad3b 28ec b8b9
-0.012805062 -0.012790864 -0.010361988 0.014582756 -4.1567415e-05 0.005392861 0.010495964 -0.003987255
0.014853655 -0.00063117204 0.0006235175 0.010350115 0.022133484 0.018199373 -0.013434094 0.014148685
0.0135227535 0.015603482 -0.0066814926 -0.0005561837 0.012232105 0.013734231 0.009798754 -0.0045771124
-0.013921762 0.014723244 0.020243125 -0.010755013 -0.015617864 0.015951177 0.004246786 -0.0051217508
0.010954316 0.0098554855 0.017519353 -0.0131738465 -0.011901588 -0.0040865694 0.013992142 0.011163048
-0.0087572895 0.0047870474 -0.007487798 -0.009502632 0.004259326 0.011474639 0.0023442046 -0.010319486
0.0067586936 -0.0020533325 -0.0074371663 -0.016452542 0.005723072 0.019228602 0.0094897915 -0.022757854
0.008890615 -0.010723038 -0.01740359 0.018744394 -0.008383181 -0.012042846 0.016245069 -0.0085967025
0.0073893634 0.024338089 0.01960726 -0.0007306084 -0.0018729324 0.014261164 -0.00856427 0.011595172
-0.014604111 0.006365232 -0.008317213 -0.0068106805 0.02030934 -0.002881136 -0.0064989775 -0.01728843
-0.0051781274 -0.017372679 0.003655237 -0.022294296 -0.018363593 0.012139641 -0.01090637 0.013950714
0.020328332 0.0058731684 0.013652707 0.014681756 0.0042970185 0.016215116 -0.0019358103 0.0109535605
-0.009614458 -0.010854231 -0.017870598 0.014382802 0.012194714 -0.0029881764 0.008734825 0.010336394
0.01127423 0.0046417676 -0.020975273 -0.005223433 0.012153393 0.014962427 -0.016215848 0.017432049
0.012626968 0.0039812457 -0.00729245 -0.0029071271 -0.0014809545 -0.0024243088 0.013018786 0.024978088
0.020379841 -0.0006373834 -0.011675246 -0.012378743 0.013058974 -0.010960602 -0.008610354 0.007181709
-0.006554887 0.009470845 0.004624291 0.015478029 -0.008633427 -0.012204168 0.004194214 -0.004214358
0.0098545905 0.010524588 -0.011816413 0.018171474 0.01568117 0.018259583 -0.009225679 0.014525839
0.024135927 0.017090205 0.0038927388 0.009796219 -0.0004503789 0.00736441 -0.011957915 -0.016084636
-0.005647148 -0.010812611 -0.013450934 0.0049080434 0.018076034 0.005156964 -0.007922383 -0.00434111
-0.020314315 -0.0044881036 0.0066995635 0.00397257 0.0055934153 -0.0029666068 -0.016520398 0.0072769397
0.015138141 -0.005624141 0.018901857 0.014605757 0.00742964 0.012529955 -0.00010942014 -0.011371864
0.011783425 -0.015463664 -0.012356086 -0.0085040685 -0.008968229 0.0073943054 0.01638163 -0.006746833
-0.023463098 -0.0079038255 -0.0014161816 0.009977264 -0.010183121 -0.009362214 0.012621798 0.012888693
-0.011439931 0.0020238194 -0.007412061 0.018267578 0.016816897 -0.009168511 -0.014185778 -0.007292567
0.020501118 -0.0033256833 -0.013131411 0.003521377 -0.013656234 0.0030850377 -0.0071658147 -0.011738373
0.013943088 0.011607131 -0.009720529 -0.018489433 -0.010327797 -0.0032613422 -0.013754298 -0.00494908
-0.014969377 -0.011311986 0.009717731 -0.008588736 -0.008610498 -0.0048972345 0.0021250534 -0.013883847
0.007593877 -0.0017040995 -0.015548334 0.0072815935 0.019278761 -0.0042262836 -0.0011705967 0.01473187
-0.019593963 0.0034905807 -0.009877138 -0.014825118 -0.0085382685 -0.00042663323 -0.01849021 0.0002233304
-0.01804487 -0.009704015 0.0013398393 -0.0063827676 -0.0011364253 -0.004062666 -0.013651933 0.019151485
0.0035611275 -0.00926644 -0.017248806 0.017409649 0.01089329 0.0011698923 0.0052932245 -0.00035271165

cnn.4.bias f4 [64]
00000000: 88b7 46bb 1b41 21bc aff9 8f3c bd7a 8f3c
00000010: 97d1 12bc b650 2e3c 4a99 19bc fa42 7bbc
00000020: 3969 cf3b 1266 973c 0f9c 223c 50da 853c
00000030: ec92 603c 22c9 a1bc c776 eb3b 6e22 56bb
00000040: 799c 003c 458e 8abb 7fe8 013b 79fb 00bc
00000050: 6b1f e5ba 9e9d b13c 0663 803c 0ae0 003c
00000060: fa9f 65bc 98f3 b83c a67c 563b 7e41 263c
00000070: 2b65 863b e84a 81bb 9d67 6bbc 4f51 28bc
00000080: fbde 58bc 8a3e 003d 1ef5 763c 961b d53b
00000090: 3ae1 85bc e534 0c3d 2ee8 87bc 2060 dcbb
000000a0: 3210 6c3c 29a7 70bb 865e f4bb aada 30bb
000000b0: 5200 953a ab9b 38bc 01df a9bb 34d5 76bc
000000c0: e2be 003c 3224 7b3c e9f5 c03c 791b 8b3c
000000d0: 1c98 643c b597 313b 639c 2c3c d4bc 873b
000000e0: d4ea 17bc 6309 873c 7156 84ba 6639 253c
000000f0: 6c7f bbbb 9b29 933c c019 293a 1cbc 963c
-0.0030321795 -0.0098421825 0.017575113 0.01751458 -0.008961103 0.01063936 -0.009374926 -0.015335793
0.006329682 0.018481288 0.009924903 0.016339451 0.013706904 -0.019749228 0.00718579 -0.003267433
0.007849806 -0.0042283856 0.0019822416 -0.007872456 -0.0017480677 0.021681603 0.015672218 0.007865915
-0.014015192 0.022577092 0.0032728105 0.0101474505 0.0041014156 -0.003945697 -0.014367965 -0.010273292
-0.013236756 0.031309642 0.015073089 0.0065035326 -0.016342748 0.03423013 -0.016590204 -0.006725326
0.014408158 -0.003672073 -0.007457557 -0.0026985803 0.0011367893 -0.011267583 -0.005184055 -0.01506548
0.00785801 0.015328454 0.02355476 0.016980873 0.013952281 0.002709848 0.010535332 0.004142383
-0.009272296 0.016483968 -0.0010096562 0.010084486 -0.005721977 0.017964175 0.00064506754 0.018400244

cnn.6.weight f4 [10, 64]
00000000: 3c4f fcbd a475 babd 50f5 0fbc 5c7b 24be
00000010: 0b00 f73d 7902 39bd 1117 6bbd 539e d1bb
00000020: 6f4f c43d ff12 2a3e 83e5 0b3d 21eb a83d
00000030: 0bb8 83bd 9788 e1bc 7341 fa3d 8cae 0cbd
00000040: 9fdc 623d 5e1a 8dbc 0218 fd3c ab78 33bd
00000050: 1450 a53c cad0 073d 07ca d1bd 1def 0abe
00000060: a7bc 91bd cade 913c 987a 903c d873 cc3d
00000070: 01ad 4cbd 7494 0fbe a673 9a3d 4b56 83bd
00000080: b1f8 fcba 5db9 1b3e 6a82 cebd 36f8 813c
00000090: 4d83 403d 4da1 d3bd ab8c 143c fa60 40bc
000000a0: 8ecb d63d 4624 85bc f16c 723d 565c 623d
000000b0: b72b 743c f7b7 723d 317c d9bc 2ec6 bc3d
000000c0: e029 3dbe 620c fb3d 26a9 2e3e 4ef6 a13d
000000d0: 31ad a6bd 3080 e83d e9bb e33b 7690 de3c
000000e0: 152e 2f3e d03d 003e de42 c7bd 067a 87bd
000000f0: 669a 01bd e7ca 18be 3e5b ee3d 8711 153d
00000100: 1418 9e3c beee ae3c c821 e83d a603 c5bd
00000110: c1f3 36be 7631 0f3e f63b 32bd d1e3 87bd
00000120: d825 383d f82e fb3c bd0f 07bd ad3f 2c3d
00000130: 1a9b fdbd 901c 1f3c 8459 2d3c 932e d33d
00000140: bb51 debd 91ba f03d c3e3 843d d1e4 d5bd
00000150: f052 973d 559e c83d c4e8 bc3d 7d2a 4c3e
00000160: 7e51 82bd a5bf 203b e3e2 80bb d102 cdbd
00000170: 88fe 063e 4391 473e 2631 f8bd 3fce 323d
00000180: 715a fdbd e058 a2bc db86 41be d0b7 5d3d
00000190: 1162 84bd 4a6d e7bd 4fac 313e 4930 9ebc
000001a0: 0b66 63bd ca08 7c3d ae29 2abe 7220 6ebd
000001b0: 6a19 7f3c d149 213e 3dd0 783c 6305 76bd
000001c0: ce07 333d 615c 8cbc e4d0 a43b 8e61 183e
000001d0: dd09 19bb 5c74 db3d 8cb5 afbb cd51 3b3d
000001e0: e4af 1c3e 6462 ccbd bfa7 46be 5b5a c3bd
000001f0: 17ad 853d f9c3 2ebe 080d 373d b843 e4bd
00000200: c23e 95bb ed5d 68bd b37a f8bd 46b3 123e
00000210: b4ea a0bd ac68 fd3c 6adf c53d e557 c83d
00000220: fb0b a6ba 1478 0a3e 6752 e1bd 1929 ee3d
00000230: f218 103d 5054 663d b5d8 17be 4457 2abe
00000240: 5594 bcbc 5786 753d d20d 8dbd ae6e bfbd
00000250: 9219 a1bd 472f acbd 59f2 36bd 77f8 7abd
00000260: b2a7 d0bd 1f01 2a3e 0e25 e2bc fb0c c03d
00000270: a72b 983d d6ce 533d e266 a63d cde1 adba
00000280: 0a1e b73d a054 b1bd 257a f7bc 6f2c 1c3d
00000290: 6e60 363d e6d2 abbd 1e1d 2b3e 4ddc 6f3d
000002a0: 60d6 fe3d 686c 263c 4281 003e 9b57 1dbd
000002b0: fb89 353d 83fa d7bd 93f3 143d 99bf 053e
000002c0: 9ca4 d9bb 05d3 013e 55d3 2e3d 628b cabd
000002d0: f34a a23d 3436 053d 03ed afbd 6be5 3fbb
000002e0: 5ca3 153d ef2f fa3d fbb0 f63d 9cda a4bd
000002f0: 2d88 303d 3820 f5bd 78de f93d 2076 b1bd
00000300: baa8 303c e198 92bc 79b0 833b 8224 52bc
00000310: 8e73 d4bd dfa8 29be e87d ecbd c1dc 85bd
00000320: 9024 04bd fe3f 953d d1c5 1d3d 3a0b ed3d
00000330: a4b9 30bc fe7b c2bc 8e29 1b3e e336 3a3e
00000340: 41ca 1a3e 5cd6 e7bd 77d3 02be 67ae a33d
00000350: 30f2 b8bd 890e 9abc df40 b73c 9a2d e6bd
00000360: 9d05 11bd e83c c8bd 2f91 dbbd 6c01 37bd
00000370: bc8e 9f3d 6c1a 6ebd 3795 46bd 4c94 24bd
00000380: 9997 d7bd abdc e1bd 004a b43d a641 133e
00000390: 86f8 703c 106e bbbc 398d d73d d2f7 623d
000003a0: b4fd 213d 0bfc 683c b047 ac3d 577c 80bd
000003b0: 70c8 af3d 0b9c 4b3b 8ca7 9c3d cae8 7dbd
000003c0: 9988 37bd baac 1cbe c88e ff3d c6f4 3c3e
000003d0: 3b93 bb3d 8630 a53d b771 ecbd 52d7 d03c
000003e0: b1e6 ca3c f52c 003e c880 9bbd ed30 cd3d
000003f0: 1373 683c e4aa ecbd f05b 603c 0133 b4bd
-0.123198 -0.091044694 -0.008786514 -0.16062683 0.12060555 -0.045168374 -0.057395045 -0.0063970475
0.09585463 0.16608809 0.034154426 0.08247972 -0.06431588 -0.027530951 0.12219515 -0.03434615
0.055386182 -0.017224487 0.030895237 -0.04381625 0.020179786 0.0331581 -0.10243612 -0.13567777
-0.07116061 0.01780643 0.017636582 0.09983033 -0.049969677 -0.14021474 0.075415894 -0.064129435
-0.001930019 0.15207429 -0.10083468 0.015865427 0.04700022 -0.103335 0.009066741 -0.011741871
0.10488044 -0.016252648 0.059185926 0.05526384 0.014903001 0.059257474 -0.026548477 0.09217487
-0.18473005 0.12258221 0.17056713 0.07908307 -0.081385024 0.11352575 0.006949891 0.027168494
0.17107423 0.1252358 -0.09729551 -0.06615071 -0.031641386 -0.14921151 0.11638497 0.03639367
0.01929859 0.021354076 0.11334568 -0.096198365 -0.17866422 0.13983712 -0.043514214 -0.066352494
0.044957966 0.030662045 -0.032973994 0.042052913 -0.12383099 0.0097114 0.010580424 0.10311618
-0.108554326 0.11754335 0.064887546 -0.10444034 0.07388866 0.097958244 0.09224084 0.19938083
-0.063632 0.0024528292 -0.003933297 -0.10010303 0.13183033 0.19489007 -0.12118749 0.043653723
-0.12370766 -0.01981777 -0.188991 0.054130375 -0.06464017 -0.11300142 0.17350887 -0.019310134
-0.055517238 0.06153182 -0.16617462 -0.05813641 0.015570024 0.15750815 0.015186367 -0.06006373
0.043708615 -0.017133893 0.0050297845 0.14880964 -0.0023351826 0.10715553 -0.0053622182 0.04573231
0.15301472 -0.09979704 -0.19399928 -0.09538718 0.06527155 -0.17066945 0.044690162 -0.11145729
-0.0045546005 -0.0567302 -0.12132778 0.143262 -0.07857266 0.0309337 0.096617535 0.097823896
-0.0012668365 0.13522369 -0.11002045 0.116289325 0.03518004 0.05623275 -0.14828761 -0.16634852
-0.023019949 0.05994257 -0.06887402 -0.09347282 -0.07866205 -0.08407455 -0.044664714 -0.06127211
-0.10188235 0.1660199 -0.02760556 0.09377476 0.07430201 0.051710926 0.08125092 -0.0013266146
0.08941276 -0.08658719 -0.03020961 0.038128313 0.044525556 -0.08389835 0.16710326 0.058559705
0.124432325 0.010157682 0.12549308 -0.038413625 0.04432104 -0.10545828 0.036365103 0.1306137
-0.0066419374 0.12678154 0.04268201 -0.098898664 0.07924452 0.032522395 -0.08590128 -0.002928103
0.036532745 0.12216174 0.12045475 -0.08049509 0.043098617 -0.11969036 0.12200636 -0.08665109
0.010782415 -0.017895164 0.00401884 -0.012826087 -0.10373603 -0.16568325 -0.11547452 -0.06536246
-0.03226143 0.07287596 0.03851873 0.11574407 -0.010786448 -0.023740765 0.1515257 0.18185
0.15116216 -0.11320183 -0.1277598 0.07992249 -0.090305686 -0.018805759 0.0223698 -0.112391666
-0.035405744 -0.09777242 -0.10721051 -0.04467909 0.07790896 -0.058130667 -0.048482146 -0.04018049
-0.10526962 -0.11028417 0.08803177 0.14380512 0.01470769 -0.02287963 0.10524983 0.05541212
0.03954859 0.014220248 0.08412111 -0.06273716 0.08583152 0.003106835 0.076491445 -0.061989583
-0.044808004 -0.15300265 0.12478405 0.18452749 0.09158941 0.08065896 -0.11545127 0.025493298
0.024768205 0.1251715 -0.075929224 0.100190975 0.014187592 -0.11556032 0.013693795 -0.08798791

cnn.6.bias f4 [10]
00000000: 225e bd3d cc6b 2a3c de71 193d 1a7d acbc
00000010: 6c0f 6bbd 12df 393c ebe6 f0bd 2441 3a3c
00000020: 31b1 bf3c 6f8c 123b
0.0924647 0.010401677 0.037462108 -0.021055747 -0.057387754 0.011344688 -0.11762794 0.01136807
0.023399921 0.0022361537
