pytorch/fashion-mnist-cnn-fold-3.pt (torch, 697239 bytes, 6 tensors)

cnn.0.weight f4 [4, 1, 3, 3]
0.16677275 0.40430745 0.6771146 0.4824711 0.5721668 0.6160272 0.1118724 0.2943525
0.64031756 -0.27335465 -0.17015474 -0.18546677 0.12571406 -0.15610659 0.11379215 -0.32279348
-0.16059455 -0.2529658 0.13359809 -0.27540946 0.19130175 -0.35194752 -0.31732848 -0.2528875
0.12068559 0.10552389 -0.2627491 -0.055722836 -0.26205483 0.0071121114 -0.031602215 -0.29202378
0.0037058434 -0.2239066 -0.094494954 0.049861036
00000000: 7ac6 2a3e 6301 cf3e 6257 2d3f 7406 f73e
00000010: 8679 123f f5b3 1d3f 5b1d e53d 5fb5 963e
00000020: daeb 233f 24f5 8bbe 0b3d 2ebe 00eb 3dbe
00000030: 30bb 003e 68da 1fbe dc0b e93d 3045 a5be
00000040: e672 24be bc84 81be f0cd 083e 7802 8dbe
00000050: 9be4 433e 7732 b4be e178 a2be 787a 81be
00000060: 022a f73d e91c d83d 0d87 86be a13d 64bd
00000070: 0d2c 86be b70c e93b 5371 01bd 2484 95be
00000080: bcdd 723b c647 65be 9286 c1bd 163b 4c3d

cnn.0.bias f4 [4]
0.2616309 -0.21189046 0.57958305 0.32735088
00000000: 7cf4 853e d0f9 58be 8e5f 143f 899a a73e

cnn.4.weight f4 [64, 2704]
0.0013082924 -0.014817221 0.0022608368 -0.009037425 0.00039084995 -0.015022551 0.015856005 -0.023934854
-0.0010653873 0.0044473927 0.01915989 -0.0055696033 0.008743525 0.0034706828 0.0015516393 0.017380137
-0.021176413 -0.0005679996 -0.010595401 0.017377764 0.009956474 -0.0084113395 -0.00992 -0.011824498
0.017128503 -0.010628433 -0.017952936 -0.012364721 0.012044453 -0.008550806 -0.003429417 -0.018117592
-0.020025885 -0.023576925 0.0040428396 0.003314617 0.010244293 0.012907887 0.015335907 -0.0032722806
-0.010776984 0.017661737 0.014242212 0.0122138895 0.005689801 0.011688812 0.015681123 0.010683161
0.018849803 0.018040048 -1.707736e-05 0.006115541 0.012730538 -0.016044732 0.019397786 -0.0038824037
-0.0050489767 -0.01612562 -0.0004443802 0.006606513 0.010748304 -0.0013086069 0.018018523 0.0041072187
-0.0018278891 -0.0019582154 0.004681779 0.006012258 0.014968659 0.016264865 0.010986531 0.004136767
-0.0049609994 0.008521663 -0.00628017 0.005882019 0.013455541 -0.013058509 0.017029935 -0.017429458
-0.018135764 -0.008481321 0.0011277056 0.01888157 9.693182e-05 0.0026416783 -0.0068115 -0.005545747
0.0015264051 -0.0015628875 -0.007683112 0.018047264 0.016685499 -0.014840361 -0.012713057 0.00922159
0.013550165 0.022753537 -0.0059973598 0.024423074 -0.0065185823 0.0070755957 0.018925471 -0.004133769
-0.003425973 -0.004339081 0.0069365404 0.012791381 0.0070332866 0.020368684 -0.0012834804 0.017449459
0.009248583 -0.016149025 0.012600123 0.010878517 -0.010664418 0.0123083815 0.015048557 0.0070593124
-0.0029540188 -0.004535591 0.010235039 -0.007431455 0.013160793 0.02397792 -0.001790413 0.0052259876
-0.005470941 -0.0153654255 0.0020517407 -0.01866437 0.018304415 0.016585192 -0.006231356 -0.009728786
-0.012153244 -0.0006497219 -0.0097056655 -0.008099905 -0.0017074182 -0.017141929 -0.0060985726 0.014077932
-0.008522615 0.0052947854 0.015733775 -0.009165352 0.0204527 0.0026108841 -0.0069180466 0.005561778
0.004450894 0.01305155 0.008734127 -0.01624875 -0.004897674 -0.00038652378 -0.0053422633 0.013993396
-0.001411273 -0.0014283644 0.010541557 0.003080934 0.013805334 -0.017465994 -0.001606332 0.014513076
-0.0013222934 -0.00853961 0.011252636 0.017324252 -0.011834024 0.017610647 -0.0015861897 0.022524117
0.005217712 0.029815163 0.004591559 0.018058153 0.006210929 -0.013348126 -0.014363684 0.009225538
-0.006601318 -0.0045390557 0.015939731 -0.005213417 -0.010634015 -0.009962916 -0.0051715 -0.013351709
0.015507944 0.010728802 0.0012468046 0.00718718 -0.004569001 -0.013176853 -0.010098396 0.001580666
0.012124686 0.0022815445 0.016854428 0.027352069 0.023878228 0.021265568 0.015662383 -0.018494949
-0.0008843918 -0.0015240844 -0.00409914 0.02094902 0.0024344733 0.0060623675 0.012460933 0.016008688
0.0114471195 0.015165756 0.008758138 0.01903727 -0.012235927 0.0027901863 0.0013563031 -0.005185859
0.005619121 0.013537257 0.027150907 0.011040894 0.0285152 0.025359439 -0.007982587 -0.013760555
0.016044784 0.0030037824 -0.020549186 -0.01927828 -0.010790091 0.0039611114 0.013870175 -0.006741546
-0.0069830744 0.02082733 -0.0027118744 -0.008718257 0.002521269 -0.00660297 0.0146627715 -0.0012513843
0.0114762075 -0.020605229 0.0113946255 0.016409978 0.010474093 -0.0007853481 0.0042438377 0.023878355
00000000: 027b ab3a eec3 72bc 8c2a 143b b511 14bc
00000010: feea cc39 2521 76bc 74e4 813c 0713 c4bc
00000020: 77a4 8bba 6fbb 913b 34f5 9c3c 3881 b6bb
00000030: 0041 0f3c 6574 633b 6060 cb3a ca60 8e3c
00000040: 287a adbc cfe5 14ba 5598 2dbc d05b 8e3c
00000050: 7b20 233c b7cf 09bc 7f87 22bc 8abb 41bc
00000060: 1351 8c3c e122 2ebc 0912 93bc 6695 4abc
00000070: 1956 453c ae18 0cbc 12c0 60bb 586b 94bc
00000080: 530d a4bc 6524 c1bc cc79 843b 0c3a 593b
00000090: aed7 273c 9a7b 533c 7543 7b3c c273 56bb
000000a0: f291 30bc 59af 903c 2b58 693c c41c 483c
000000b0: 8371 ba3b 6e82 3f3c b375 803c 6d08 2f3c
000000c0: e76a 9a3c b9c8 933c 5a41 8fb7 e064 c83b
000000d0: bf93 503c 3e70 83bc 1be8 9e3c ed6f 7ebb
000000e0: e371 a5bb e019 84bc b3fb e8b9 737b d83b
000000f0: a819 303c 9085 abba 959b 933c d995 863b
00000100: c895 efba 6755 00bb 9c69 993b 7a02 c53b
00000110: 1b3f 753c e53d 853c da00 343c b78d 873b
00000120: e18f a2bb 729e 0b3c e2c9 cdbb f4bd c03b
00000130: a174 5c3c 5bf3 55bc 5d82 8b3c 39c8 8ebc
00000140: 7491 94bc 3df5 0abc 85cf 933a 86ad 9a3c
00000150: e047 cb38 0220 2d3b 0133 dfbb 19b9 b5bb
00000160: a811 c83a cdd9 ccba 9dc2 fbbb dbd7 933c
00000170: 07b0 883c fc24 73bc 6d4a 50bc 2716 173c
00000180: 8301 5e3c a065 ba3c 8085 c4bb e612 c83c
00000190: d599 d5bb 66da e73b 9709 9b3c 9174 87bb
000001a0: 4a86 60bb d92e 8ebb eb4b e33b f192 513c
000001b0: 7c77 e63b 3adc a63c 753a a8ba 2bf2 8e3c
000001c0: 5e87 173c f64a 84bc bf70 4e3c cf3b 323c
000001d0: d0b9 2ebc 18a9 493c 398e 763c ce51 e73b
000001e0: 3698 41bb 4c9f 94bb ddb0 273c 9083 f3bb
000001f0: 5ea0 573c 586d c43c 4bac eaba c33e ab3b
00000200: 9445 b3bb 44bf 7bbc 7f76 063b 05e6 98bc
00000210: 24f3 953c abdd 873c 6730 ccbb 7c65 1fbc
00000220: 661e 47bc 1952 2aba 8304 1fbc 77b5 04bc
00000230: 73cb dfba 3b6d 8cbc 89d6 c7bb 20a7 663c
00000240: 70a2 0bbc e17f ad3b 1ee4 803c 462a 16bc
00000250: 6c8c a73c 5e1b 2b3b c8b0 e2bb 933f b63b
00000260: ced8 913b 2bd6 553c 9519 0f3c 191c 85bc
00000270: ab7c a0bb 58a6 cab9 270e afbb 8f44 653c
00000280: 77fa b8ba f537 bbba 7fb6 2c3c 7fe9 493b
00000290: c52f 623c d814 8fbc 8f8b d2ba 41c8 6d3c
000002a0: ce50 adba b8e9 0bbc fa5c 383c 97eb 8d3c
000002b0: 7fe3 41bc 3444 903c b2e7 cfba 7f84 b83c
000002c0: 57f9 aa3b ee3e f43c ca74 963b b1ee 933c
000002d0: 0c85 cb3b 19b2 5abc a855 6bbc b626 173c
000002e0: de4f d8bb 5cbc 94bb 0a94 823c 50d5 aabb
000002f0: 4b3a 2ebc 803b 23bc b075 a9bb 20c1 5abc
00000300: 0815 7e3c dbc7 2f3c d26b a33a 7082 eb3b
00000310: 8fb7 95bb bae3 57bc be73 25bc 5a2e cf3a
00000320: 9ea6 463c f785 153b 4c12 8a3c 7211 e03c
00000330: 469c c33c 2135 ae3c 664e 803c b882 97bc
00000340: 87d6 67ba c9c3 c7ba 1452 86bb 479d ab3c
00000350: af8b 1f3b d3a6 c63b f128 4c3c a724 833c
00000360: b38c 3b3c cb79 783c 4b7e 0f3c 0df4 9b3c
00000370: 3379 48bc 8fdb 363b fbc5 b13a 23ee a9bb
00000380: 9a20 b83b 5fcb 5d3c 946b de3c dee4 343c
00000390: b598 e93c 99be cf3c 66c9 02bc f373 61bc
000003a0: 5a70 833c 1bdb 443b c456 a8bc 7ced 9dbc
000003b0: ecc8 30bc 36cc 813b bb3f 633c 30e8 dcbb
000003c0: 46d2 e4bb 149e aa3c b4b9 31bb 05d7 0ebc
000003d0: e03b 253b ba5d d8bb 1f3c 703c 7d05 a4ba
000003e0: b406 3c3c 4ccc a8bc 86b0 3a3c 386e 863c
000003f0: 889b 2b3c d2df 4dba e40f 8b3b 8a9c c33c

cnn.4.bias f4 [64]
0.011641304 0.0068284655 -0.0005750522 0.011434017 -0.016489204 -0.0071969097 0.00968153 -0.011702713
-0.003234086 -0.011709637 0.023965947 0.013071297 0.009948836 0.011798553 -0.013978728 0.01729908
-0.0016305714 -0.0046423674 0.0099145975 0.008234166 0.006243755 0.004205754 -0.008422482 0.0007784563
0.0029089453 -0.0007171677 -0.00944386 0.0007196296 0.001398764 -0.012918396 0.0185117 0.016345961
0.007465048 -0.0135287 0.015630806 0.005199427 0.013835091 -0.014951872 -0.015718183 0.00073040085
0.02011943 -0.019670542 -0.005507971 -0.0075641675 -0.015730092 0.0015448636 0.024746766 0.01163522
-0.009449287 0.0075983778 -0.0043932754 0.0024774435 -0.009141404 -0.017407902 -0.008247588 0.013735618
0.0049388744 0.013901689 -0.002310469 0.0140795745 0.0057841823 -0.0029282756 -0.00035098943 0.0022598892
00000000: 2bbb 3e3c 52c1 df3b 1abf 16ba be55 3b3c
00000010: 5e14 87bc 0ed4 ebbb 489f 1e3c bcbc 3fbc
00000020: f6f2 53bb c7d9 3fbc 3c54 c43c fe28 563c
00000030: 7100 233c b84e 413c 0907 65bc cdb6 8d3c
00000040: e6b8 d5ba 001f 98bb d670 223c 98e8 063c
00000050: 6a98 cc3b 6cd0 893b 73fe 09bc 5111 4c3a
00000060: 01a4 3e3b 4f00 3cba 6bba 1abc 86a5 3c3a
00000070: bb56 b73a aea7 53bc d9a5 973c f7e7 853c
00000080: 5d9d f43b 7ba7 5dbc 2d0c 803c f45f aa3b
00000090: 94ac 623c b2f8 74bc 6bc3 80bc 5f78 3f3a
000000a0: 81d1 a43c 1e24 a1bc 367c b4bb d6dc f7bb
000000b0: 65dc 80bc 057d ca3a bbb9 ca3c a6a1 3e3c
000000c0: 2fd1 1abc d0fb f83b 77f5 8fbb 9b5c 223b
000000d0: d4c5 15bc 049b 8ebc e420 07bc 5c0b 613c
000000e0: 48d6 a13b e9c3 633c 3d6b 17bb 04ae 663c
000000f0: 3d89 bd3b 50e8 3fbb 0105 b8b9 a61a 143b

cnn.6.weight f4 [10, 64]
-0.00585175 0.102806225 -0.06917641 -0.17420709 0.05976085 -0.123418786 0.048094306 -0.07727124
-0.02984158 -0.013987634 0.0015566228 0.14245936 -0.0010539243 -0.08922426 0.018466545 0.018458502
0.042997085 0.08260049 -0.009856467 0.028178884 -0.027109338 -0.054142762 -0.03533062 -0.10061092
0.040508337 -0.022282515 -0.10200942 -0.0036131449 -0.080015935 0.038650986 -0.073067985 0.12892134
-0.114101574 0.08490731 -0.03225705 0.1505894 -0.112195365 0.14559717 -0.029305294 0.10094601
0.05941498 0.049517587 -0.098894715 -0.072587244 -0.048809808 -0.06950084 0.06956011 -0.022221236
0.20553587 -0.10390741 -0.0016151527 -0.08140942 0.12096125 0.11707101 -0.13077933 -0.13755207
0.10251213 -0.062259443 -0.0705169 0.098538764 0.19361642 0.065936 0.09390222 0.03058494
-0.05360485 0.06360059 0.023341702 -0.15969577 -0.16874868 -0.010469163 0.00651449 0.060352854
0.016133768 -0.01377662 -0.0013996063 -0.10261341 -0.07387916 0.08739134 0.014664616 0.16336744
0.052489582 0.09224911 0.02487982 -0.08018395 0.18431048 -0.15801288 -0.08858172 0.066247575
-0.09568807 0.024148153 -0.022400497 -0.08715849 0.16469285 -0.020890469 0.013379347 -0.10068691
0.045642555 -0.062382914 0.031688776 0.10701604 0.07853365 -0.023517428 -0.007040431 -0.1294217
0.060020104 0.11533826 0.08600193 0.027868828 -0.068430305 0.05659537 0.12574416 0.12723763
-0.07654937 0.039067704 -0.06752457 -0.09280105 0.22782063 -0.029434001 0.09192362 -0.13042998
-0.03834151 0.10729957 -0.13689397 -0.09157779 -0.14097793 -0.18652913 0.0320836 -0.02171483
0.036325615 0.040795047 -0.028335799 0.124250025 0.051542807 -0.011581447 -0.08818169 -0.06130868
-0.025124185 -0.1440885 -0.092695005 -0.021076197 0.13095398 -0.0029542418 -0.07055498 -0.18081681
0.10409601 0.060835704 0.026943803 -0.15133204 -0.0467768 -0.049388736 -0.056578856 -0.1044414
0.11400329 0.13127694 0.09752748 0.016908327 0.122025914 -0.001784773 0.08455986 0.0075684893
-0.07618973 -0.036424786 -0.06959368 0.115499794 -0.056603868 0.121788815 -0.06571706 0.10380255
0.06907777 0.090612635 0.005664408 -0.11982129 -0.0009840272 0.15101077 0.013785983 0.03553049
-0.10387214 -0.0075136456 -0.0887681 -0.08093089 -0.14039947 -0.11021391 0.066098064 -0.116474934
0.006025393 0.00367743 0.09860379 -0.12716053 0.14471997 0.14027458 -0.13115829 0.07079035
-0.15416229 0.03040083 0.067937285 0.034011 -0.111202374 -0.044584468 -0.11763498 -0.06881001
-0.10775275 -0.06819993 -0.10120527 -0.116475515 -0.07963502 -0.027728923 -0.041017585 -0.0017685547
0.15776645 0.09316181 0.15354192 0.036145225 0.0036880253 -0.16113481 -0.07053291 -0.13187274
0.0068740435 0.055509906 0.18079676 -0.0664673 -0.094803184 -0.050462257 0.11183797 0.15329356
0.012195707 -0.15129043 0.11669432 0.063307226 -0.043741226 0.09120458 0.009038669 0.13158715
-0.11683 0.009208827 -0.114466876 -0.12118785 -0.078388475 -0.124559365 -0.0880419 -0.00047216148
0.10624905 0.11525661 -0.09375456 -0.08350846 0.035781197 0.06995603 0.16682406 -0.059872422
0.041856077 0.065757826 -0.16534257 -0.11160431 0.12500437 0.071695045 -0.049341366 -0.15459709
00000000: 09c0 bfbb 128c d23d 5dac 8dbd 5863 32be
00000010: cbc7 743d fdc2 fcbd 89fe 443d 6240 9ebd
00000020: 5476 f4bc 642c 65bc 9807 cc3a dee0 113e
00000030: d523 8aba 35bb b6bd 2747 973c 4936 973c
00000040: b61d 303d 722a a93d 057d 21bc 67d7 e63c
00000050: 6714 debc cdc4 5dbd d7b6 10bd 190d cebd
00000060: 12ec 253d d289 b6bc 51ea d0bd 83ca 6cbb
00000070: 65df a3bd 7f50 1e3d aba4 95bd f503 043e
00000080: 16ae e9bd e2e3 ad3d f81f 04bd 1c34 1a3e
00000090: afc6 e5bd 6d17 153e a811 f0bc c8bc ce3d
000000a0: 1f5d 733d f4d2 4a3d 5089 cabd 9fa8 94bd
000000b0: cbec 47bd 7556 8ebd 8875 8e3d 4f09 b6bc
000000c0: ff77 523e 68cd d4bd 88b3 d3ba fbb9 a6bd
000000d0: 88ba f73d edc2 ef3d 04eb 05be 73da 0cbe
000000e0: e1f1 d13d c203 7fbd 2a6b 90bd b1ce c93d
000000f0: 6243 463e 7409 873d cf4f c03d 458d fa3c
00000100: c290 5bbd 0741 823d 1937 bf3c 4a87 23be
00000110: 74cc 2cbe da86 2bbc 8177 d53b 8e34 773d
00000120: f72a 843c 55b7 61bc ff72 b7ba fb26 d2bd
00000130: f54d 97bd 3bfa b23d dc43 703c cb49 273e
00000140: 51ff 563d 1aed bc3d c4d0 cb3c 7c37 a4bd
00000150: e3bb 3c3e 21ce 21be 556a b5bd cfac 873d
00000160: 1bf8 c3bd 59d2 c53c 3f81 b7bc 2780 b2bd
00000170: 3ea5 283e 7d22 abbc 0c35 5b3c f034 cebd
00000180: b0f3 3a3d 3a85 7fbd 17cc 013d 3a2b db3d
00000190: 40d6 a03d 9fa7 c0bc 6ab3 e6bb 1f87 04be
000001a0: a4d7 753d 7736 ec3d c821 b03d 2b4d e43c
000001b0: 3025 8cbd 8cd0 673d 14c3 003e 954a 023e
000001c0: ebc5 9cbd 7505 203d 524a 8abd 7a0e bebd
000001d0: d049 693e 931f f1bc 7342 bc3d 708f 05be
000001e0: fd0b 1dbd e1bf db3d ef2d 0cbe 238d bbbd
000001f0: 855c 10be 7e01 3fbe 186a 033d 4de3 b1bc
00000200: 2bca 143d b518 273d 7a20 e8bc cc76 fe3d
00000210: 8d1e 533d 1cc0 3dbc 9a98 b4bd cf1e 7bbd
00000220: 3cd1 cdbc f08b 13be e1d6 bdbd fda7 acbc
00000230: cd18 063e f49b 41bb 217f 90bd 0b28 39be
00000240: 4a30 d53d dc2e 793d 40b9 dc3c c9f6 1abe
00000250: 0899 3fbd d84b 4abd 3bbf 67bd 5fe5 d5bd
00000260: 8f7a e93d 766d 063e 7dbc c73d 5583 8a3c
00000270: b9e8 f93d 0bef e9ba b82d ad3d 1701 f83b
00000280: 5c09 9cbd 2832 15bd 2287 8ebd 288b ec3d
00000290: 75d9 67bd 6a6c f93d aa96 86bd 6e96 d43d
000002a0: a578 8d3d 1e93 b93d 809c b93b dd64 f5bd
000002b0: 79fa 80ba 91a2 1a3e 9bde 613c 6b88 113d
000002c0: ebba d4bd 0735 f6bb 0dcc b5bd 18bf a5bd
000002d0: e1c4 0fbe d5b7 e1bd 6c5e 873d 698a eebd
000002e0: a970 c53b 0a01 713b c9f0 c93d 5f36 02be
000002f0: 7931 143e 24a4 0f3e 5c4e 06be 88fa 903d
00000300: b8dc 1dbe 290b f93c b422 8b3d 1e4f 0b3d
00000310: 12be e3bd 349e 36bd 9cea f0bd 43ec 8cbd
00000320: 79ad dcbd 68ac 8bbd b544 cfbd b78a eebd
00000330: af17 a3bd c427 e3bc 0e02 28bd d9ce e7ba
00000340: 878d 213e 9ecb be3d 183a 1d3e 040d 143d
00000350: ccb2 713b 8600 25be 8f73 90bd a609 07be
00000360: a83f e13b 5b5e 633d c922 393e 0220 88bd
00000370: 2c28 c2bd 83b1 4ebd 4e0b e53d fdf8 1c3e
00000380: 81d0 473c e1eb 1abe 6ffd ee3d 38a7 813d
00000390: 002a 33bd 78c9 ba3d ed16 143c c8be 063e
000003a0: 9144 efbd 9fe0 163c 9c6d eabd 5631 f8bd
000003b0: 238a a0bd fb18 ffbd 504f b4bd 718c f7b9
000003c0: 1a99 d93d a80b ec3d 6402 c0bd 7c06 abbd
000003d0: 4e8f 123d 1b45 8f3d edd3 2a3e c93c 75bd
000003e0: 4771 2b3d 0aac 863d 904f 29be cd90 e4bd
000003f0: 2501 003e dad4 923d 2c1a 4abd b34e 1ebe

cnn.6.bias f4 [10]
0.09439424 0.07550261 0.0060049505 -0.0046129483 -0.03136983 -0.06169742 -0.051221106 0.087664
-0.09354317 -0.11873201
00000000: c451 c13d 1da1 9a3d 2dc5 c43b 3728 97bb
00000010: a77d 00bd 6fb6 7cbd 39cd 51bd 2f89 b33d
00000020: 9093 bfbd c529 f3bd
