pytorch/cnn_basics/fashion-mnist-cnn-fold-0.pt (torch, 697239 bytes, 6 tensors)

cnn.0.weight f4 [4, 1, 3, 3]
00000000: caa6 9ebe 5eb9 2b3e f62a a9be 522b 99be
00000010: 8b91 31be 3a1e a0bc 5752 febc 7791 f6bc
00000020: 7c79 2f3e e4ef 83bd 5016 a93e b490 32bd
00000030: d30c 9fbe d187 81bd 09bc 29be 0ff6 613e
00000040: bd19 1b3e 9832 723c 1e73 2abe 76ce 2cbe
00000050: 44eb 993e 5de8 f7bd 19a7 a8be 0fe1 a1bd
00000060: ec29 8e3e 8201 12be 5df3 84be 2988 633e
00000070: 5995 ae3e 9610 f03d 70d0 333f a024 003f
00000080: 684e 183f 7431 743e 6f23 323f 842e b13e
-0.30986625 0.1676993 -0.3304059 -0.29915863 -0.17340676 -0.019545663 -0.031045122 -0.03009866
0.17136186 -0.0644224 0.33024836 -0.04359503 -0.31064472 -0.06324733 -0.16575636 0.2206652
0.15146537 0.01478257 -0.16645476 -0.16875634 0.30062306 -0.12104867 -0.32939985 -0.07904255
0.2776636 -0.14258388 -0.2596692 0.2221991 0.34098318 0.117219135 0.70239925 0.50055885
0.5949464 0.2384699 0.6958532 0.346058

cnn.0.bias f4 [4]
00000000: e719 133f 5851 82be c0b2 dc3e 3fc4 e83d
0.574614 -0.25452685 0.43105125 0.11365556

cnn.4.weight f4 [64, 2704]
00000000: c2aa 10bb 3d5e 89bb ea08 4ebc 6e19 8f3c
00000010: 9428 453c 2d2b 7bbc 733a bc3b 13b3 40bc
00000020: 2c8f 2aba 1f42 7a3c b149 ecbb d58c fd3b
00000030: 05db a13c a5ba 0fbc 65bd 023c e30b f9bb
00000040: 613b 8ebc 4e8e 833b 66cc 213c fcf7 63bc
00000050: 35c9 00bc 0813 963c a352 71ba 1c28 293c
00000060: bd4c 6d3c 0ff3 0bbc 776c 4bbb 07e6 6c3c
00000070: 5466 1539 81a6 67bc 3277 8e3c 3bb2 ad3a
00000080: fa61 2e3c 373f ad3b 6d52 72bc cbc1 9b3c
00000090: a2f5 75bc be37 a63c f7b0 663b b14a d6bb
000000a0: e6e0 93bb 2006 a83c 1bc0 5dbc 8046 5e3b
000000b0: 9185 4bbb 49df a33c 79b8 053c 123c 0cbb
000000c0: f67e 8fbc 8376 3b3c 063c 413c 30d5 49bc
000000d0: 8541 69bc 3c81 573c 7e3a 52bc 8d0e 17bb
000000e0: 1a9a 7c3b 01cf 00bc a47f cbba 2d61 4dbb
000000f0: 6246 403c 0d39 2fbc c10f fc3b f9c7 01bb
00000100: 6d0e 673a 60e9 91bc f0ae 2cbc ee08 96bc
00000110: 5911 f9ba 4088 61bb 9e93 86bc ccc9 563b
00000120: 9db5 16bc fb5f 973c 3671 9f3b 1d14 063c
00000130: c972 21bc f5c2 28bb 00c5 86bb 0145 cf3b
00000140: e715 a63c d659 963c 6028 fb3b f971 e9b9
00000150: 3674 9f3c 1af5 123c cfad f2bb f376 6f3b
00000160: 4ca6 01bc 571b ee3a 6d79 3abc 6241 383c
00000170: e07b 50bb bba9 a6bb fea6 24bc 67fc edba
00000180: 27f6 033c d42f 6b3b 3ada 8639 54d7 303c
00000190: 0159 1f3b 4c9d dc3b 0288 c5bb 9616 303c
000001a0: 7f3f 443c 95b3 a83c c915 a23c 1678 9a3c
000001b0: a3f0 9a3c ab76 3abc e772 0fbc e597 a53c
000001c0: 2690 813c 2b44 73bc 0e56 a73c 88f3 583c
000001d0: a6b5 3bbc 90fe 2a3c 8003 253b 2415 cabb
000001e0: 3cac 9d3c 5fb0 103c cd93 c4bb 1c3f 993b
000001f0: 51c4 923c fd99 a03c ab16 06bc d8bf 763c
00000200: 63f4 af3b 9440 483c ca7d 9d3c eaec a83b
00000210: b177 a93c 0e12 b73b 5814 78bc 1626 2037
00000220: 92de d9bb 6deb 34bb 0556 a0bb 3996 103b
00000230: ed49 89bc e6eb 843c d401 ffbb 7186 103c
00000240: b9b3 333c 207a 9c3b f8b5 d53b 73aa eb3b
00000250: be1c 79bc f684 d23b c502 1c3b db0f 443c
00000260: eb22 853c 106a 1fbc 4497 47bc 2e8f 2bb9
00000270: 6c57 51bb f034 903c bc90 c3ba 9086 953b
00000280: f2fb 7a3c 443a 51bc 0d79 213b 8754 e7bb
00000290: 643c c23c beb6 6b3c e8dc 08bc e8b0 e4bb
000002a0: c3d0 e9bb 9490 83bc 9d3e d8bb 6311 5b3c
000002b0: 3e43 9ebc 1bd5 7e3c a963 eebb aff6 903c
000002c0: 2107 42bc fb23 693b 5a2c 3fbc 6d71 503c
000002d0: 6f00 b13b 3208 17ba 7538 48bc ebc1 c8bb
000002e0: e68f f3bb 6469 1d3c f883 bf3b 2e7c 5d3c
000002f0: de98 b0b9 4aa8 ccba 759e 54bc c4e9 af3b
00000300: 88ee b43c 4198 54bc 92ff 82bb 7f0f 23bc
00000310: 03ec 06bb dc9b b6bb 5ebd 00bc 7bfa cf3b
00000320: d233 ca39 4d48 2fbc c04c d1bb f104 113c
00000330: dd53 40bc 39cd a139 bda7 7fbb 2df1 93bc
00000340: 1336 c1bb b393 8a3b 4347 bb3b 53de cbbb
00000350: 3fe5 8bbb b615 80bb e61d dd3b 757f e7bb
00000360: 7f40 0239 7ef0 903c 8941 08bc 3627 0e3c
00000370: 8a49 bebb 2e61 1dbb 3042 af3b 2758 823c
00000380: 317e 013c 18e4 123c 8232 a2bc b59b 1ebc
00000390: 5f40 1c3c 3d43 863c 5ca3 0b3b 6795 1d3b
000003a0: 423a d83b 8330 44bc c241 73bc 6d93 a73c
000003b0: 49fc f3b9 5c5f 08bc 8348 7fbb b670 8d3c
000003c0: d8ec 98bb b41c bb3c 554b 3e3c 2fb7 60bc
000003d0: 56b9 873c d1fa 55bc 910d 15bb 69ff c7bb
000003e0: ead5 53bc 6aaf 473c ef58 82bc 4ccc 4abc
000003f0: b9c3 83b8 b5dc 933c 7a47 813c 708e 7f3c
-0.0022074436 -0.0041921423 -0.012575367 0.01746818 0.0120336 -0.015330118 0.0057442724 -0.011761445
-0.00065063196 0.015274554 -0.007210933 0.0077377358 0.019757757 -0.008772527 0.0079797255 -0.007600294
-0.017362298 0.004014767 0.009875393 -0.013914105 -0.0078604715 0.018319622 -0.0009205734 0.010324504
0.014483628 -0.008541836 -0.0031039992 0.01445914 0.00014247868 -0.014138819 0.017390821 0.0013251969
0.010643477 0.005287077 -0.01479016 0.019013306 -0.015012177 0.020290252 0.0035200694 -0.0065396656
-0.004512894 0.020510733 -0.013534571 0.0033916533 -0.0031054954 0.020003932 0.0081616575 -0.002139811
-0.017516594 0.01144183 0.011794096 -0.012318894 -0.0142368125 0.0131533705 -0.012831328 -0.0023049444
0.0038544 -0.007861854 -0.0015525711 -0.003133844 0.011735531 -0.010694754 0.0076923077 -0.001980303
0.00088141003 -0.017811477 -0.010539755 -0.018314805 -0.0019002362 -0.0034413487 -0.016427811 0.003277409
-0.009198573 0.018478384 0.0048657907 0.008183506 -0.009854027 -0.002575097 -0.0041128397 0.0063253646
0.020274116 0.018353384 0.007664725 -0.0004452614 0.019464593 0.00896957 -0.0074059735 0.0036539405
-0.007913183 0.0018166107 -0.011381489 0.011246057 -0.0031812117 -0.0050861514 -0.01004958 -0.0018156887
0.008054293 0.0035886662 0.00025721063 0.010793526 0.0024314525 0.0067326184 -0.0060281763 0.010747572
0.011978029 0.020593444 0.019785779 0.01885609 0.018913573 -0.011380832 -0.008755422 0.02021403
0.015815806 -0.0148477955 0.020426776 0.013241656 -0.011456883 0.010436669 0.0025179088 -0.006167071
0.019247167 0.008831113 -0.0059990645 0.0046767127 0.017915877 0.019604677 -0.008184115 0.015060388
0.0053697093 0.012222428 0.01922502 0.0051551955 0.020686956 0.005586869 -0.015141569 9.545611e-06
-0.006648847 -0.0027606145 -0.004893067 0.0022062196 -0.016758883 0.016225766 -0.0077822004 0.008821116
0.010968142 0.0047753006 0.0065219365 0.00719195 -0.015204607 0.0064245416 0.0023805362 0.011966671
0.016252002 -0.009729877 -0.012182061 -0.0001636117 -0.0031942977 0.017603368 -0.0014920454 0.0045631602
0.0153188575 -0.012770239 0.0024638802 -0.007059637 0.023710437 0.014386831 -0.008353449 -0.0069790967
-0.007135482 -0.016060151 -0.006599261 0.013370845 -0.019319173 0.015553738 -0.007275064 0.017695753
-0.01184252 0.0035574425 -0.011668289 0.012722355 0.005401663 -0.0005761414 -0.012220492 -0.0061266324
-0.0074329255 0.009607647 0.0058445893 0.013518376 -0.0003368323 -0.0015614119 -0.012977232 0.005368443
0.022086397 -0.012975753 -0.0039977515 -0.009952425 -0.0020587451 -0.005572779 -0.007857649 0.0063469983
0.00038567052 -0.01069839 -0.006387323 0.008851276 -0.011738745 0.00030861216 -0.0039009892 -0.018059338
-0.0058963387 0.004229033 0.005715282 -0.0062215715 -0.0042692716 -0.003908838 0.006747949 -0.0070647546
0.00012421793 0.0176928 -0.008316406 0.008676341 -0.0058071064 -0.0024014222 0.0053484663 0.015911175
0.0079036215 0.008965515 -0.019799475 -0.009680678 0.009536832 0.016389484 0.0021307087 0.002404535
0.0065987417 -0.011974457 -0.014847221 0.02045604 -0.0004653654 -0.008323517 -0.0038953132 0.017265659
-0.004666906 0.022840835 0.01161464 -0.013715549 0.016567867 -0.013060288 -0.0022743682 -0.0061034453
-0.012929419 0.012187818 -0.015911547 -0.01237781 -6.283023e-05 0.018049577 0.015781153 0.015597925

cnn.4.bias f4 [64]
00000000: cb09 233c 4ad3 f1bb 9188 763c a986 7fb9
00000010: 54a3 61bc 05ed 963c f562 003c eaf5 d4ba
00000020: 28be 943c 803f 1a3c 66e3 cb3c e64e 5e39
00000030: abfa 973c 142c 76bc 622c 573b 8d04 78bc
00000040: 049c 1b3c a558 793c 0d8f 593c b464 cf3c
00000050: da83 f4ba 272c c23b dad4 c33b e142 56bb
00000060: 755e 943b 12f0 5dbc 8d42 7c3c 57d6 3dbc
00000070: 3a20 c8ba 4159 013b 615f 403c 287d 2cbb
00000080: f5d8 6bbc bf93 973c 2591 143c 9cea ab3b
00000090: 4a08 543c 3a79 7d3c 9d83 2f3c d240 a03a
000000a0: 7b21 2aba 1734 693a f4d0 d8bb 62ed 93bc
000000b0: aef6 aaba 1408 863c 04dc 74bc 2fd2 9f3c
000000c0: c836 bc3c ebae 98ba fccc 4a3a fd9e ffbb
000000d0: 269a ab3c 4f21 a2bc 6c5f 703c d8d9 0ebc
000000e0: 7f9a d4bb c6de 24bc 87d1 a23b b705 3fbc
000000f0: 9aa7 92bb bb29 8d3c 21b6 783b e55d 56bb
0.009951065 -0.007379924 0.015047208 -0.0002436886 -0.013771851 0.018423567 0.007836093 -0.0016247605
0.01815708 0.009414554 0.024888705 0.00021200962 0.018552145 -0.0150251575 0.003283285 -0.015137804
0.009497646 0.015218888 0.013278735 0.025316574 -0.0018655017 0.0059256735 0.0059763016 -0.0032693672
0.0045278617 -0.013546007 0.015396726 -0.011586747 -0.0015268393 0.0019737037 0.01174149 -0.0026319716
-0.014394988 0.018503068 0.009067808 0.0052464735 0.012941429 0.015470797 0.010712531 0.0012226349
-0.00064899743 0.00088960066 -0.006616706 -0.018057529 -0.0013043487 0.016361274 -0.014945034 0.019509403
0.02297534 -0.0011648809 0.00077362335 -0.0078009353 0.020947527 -0.019791273 0.014671188 -0.00871893
-0.006488144 -0.010062879 0.0049688253 -0.011659077 -0.004475546 0.017231813 0.0037950354 -0.0032709774

cnn.6.weight f4 [10, 64]
00000000: 9d10 68bd 131d c43d e598 b33d 27f0 32be
00000010: 2d87 b1bc 441d 95bd 505c 0ebd d0be 9939
00000020: d5bf 1d3e 0a06 a53d 1660 ae3d 0dcc 873d
00000030: bf55 aa3d 0486 bdbc d0c9 153e be8f 993d
00000040: f6f8 efbd 39f3 013e 89ab 0d3e 9a7d 2abe
00000050: 0202 023e 563c d83c cd13 ee3d 3e98 f2bd
00000060: 4a83 143e d0dd 3fbd a29a 003e bdc5 febd
00000070: 406b eabd 76a6 0e3e ae7c b03d b2e0 2e3c
00000080: 55bc 3a3d 9ed8 cd3d 765a 89bd fc9f f6bc
00000090: 032d aebd 6a2e 923d eec8 3dbe 66fc 81bc
000000a0: 3535 d33d 1543 4cbd 8ce4 533d 9a7a b1bd
000000b0: 152e f7bd 2ca0 cbbd b63f b03c 6609 84bd
000000c0: 42bb 2b3e fdf0 b2bb 2023 e73d 3b8b c5bd
000000d0: 7e67 92bd 5b69 cc3d fcf2 0fbd 48c6 ab3d
000000e0: 4e79 f7bc d571 1c3d 69d1 febd e956 96bd
000000f0: 6f4e c8bc 79d4 debd 6f00 253d c46a 81bd
00000100: 8288 113e e718 253e 0e22 c03d a326 01bd
00000110: 6792 093d 7a34 cdbd 9c28 dbbd 9099 903c
00000120: b80f 2c3e 8480 1dbd 79f2 c1bc f4a7 bf3d
00000130: 9852 883b aa4d b0bb a6ef 76bd ee6a 02bd
00000140: 02f7 18be 7cfd 53bd d2a7 96bd cfcb ecbd
00000150: efb6 053d a8a5 2e3d a4dd 693d f736 1abe
00000160: 4cd2 10be 5ede b1bd 2130 2bbe 8ae8 ad3d
00000170: b6c0 14be 0739 5b3d cbcf 083d f977 48be
00000180: 239e 173e fce9 e43c 6606 bd3d 9831 e63c
00000190: ad19 b1bc 7ccf 1fbd a37f 3a3e b559 debb
000001a0: 817c c13d b785 e3bc 1b5e 813c 4187 673d
000001b0: 0953 63bb df4a 563e be3d f2bd 2cfa 4e3c
000001c0: 469d 383d 4450 8fbd d3df 08bc 3fd5 023e
000001d0: 00ad db3d aa77 aabb 1692 72bd c750 d2bd
000001e0: 1a17 263d c67f ddbd b852 893c 266e ca3c
000001f0: d92c 2d3e 2269 aebc 5849 6f3c 77c9 1cbe
00000200: 1c71 f9bd 229c adbd 4bb9 48bc bd7a 4ebe
00000210: ac76 083d 2def d4bd 6d78 79bc 7d5b 5fbc
00000220: 6eea 61bd 6ccf 083d f7bb 2bbd c8de 053e
00000230: 07ec e5bd 0a24 9c3d 7733 643d 7854 643d
00000240: 977c 9cbd d9e9 e8bd d738 103e a975 cb3d
00000250: 207c 833d 2e68 983d 3397 163d bb21 2e3e
00000260: 15a1 abbd 1bb4 f93d 432e 2dbd 90c3 803d
00000270: 4f11 e63c 66b2 0c3e bc10 99bc 65c2 983d
00000280: cea3 52bd 88ef d23a 450a ddbd fd12 e33d
00000290: 7a60 a13d 34dc 08be f1c7 0d3d 9100 b83d
000002a0: 6ec0 213d 8438 d73d 23f0 f43c 7a5d 973d
000002b0: 42cd 6fbd 9f2d fdbd c6cc dcbd 2911 dc3d
000002c0: d3aa aa3d 68c2 55bd b7ce abbd 7ffa e03d
000002d0: 85eb b8bd dca0 6f3c 6179 f13c 221d fb3d
000002e0: 9b21 0dbe 0d34 e6bd d683 173e 9dc3 d33d
000002f0: d837 07bd dfe3 c6bd 70ef 5bbd fa05 93bd
00000300: 249a 09be a222 e3bd e70c d73d fcb4 c7bd
00000310: 78ec 15bd 8dc0 2cbd cbcd fbbd 6ddf 573d
00000320: 3ef8 a6bc 9888 b6bc ef60 86bd 7a4b 213e
00000330: 0c0c 083c 47c9 b83d 426f 89bd 17ae 803c
00000340: 44af 49bc 5ab2 13be 23db b7bd 18c2 ad3d
00000350: 2187 2ebc 4dd1 213d 6abf 3e3e cb96 a33a
00000360: 5071 00be 57c9 5a3c e817 89bc c9e8 c8bd
00000370: 4211 1bbd 954e b23d 6384 963d 49ed 08be
00000380: 1eab 0a3d 26b3 eb3d 0c9f 0a3e 7842 813d
00000390: f2a1 04be 130d 59bd c87b e1bd 255d dbbd
000003a0: 563c 2abb 44f4 ae3d be12 c43d 1b9d 34bc
000003b0: a7c6 adbd d636 0e3c 27f0 b13d 44ec 0abe
000003c0: 0962 133e f3b5 b3bc ca11 993d 96a8 ca3c
000003d0: d25c c93d bb06 9a3d 8c21 b7bd 65b4 d23d
000003e0: 007f 19be 59f7 a6bd fb1d b9bd 2998 0d3e
000003f0: 3bb2 1a3e 6fda af3d 0b22 d03d 1ae8 873d
-0.05665647 0.09575858 0.08769397 -0.17474423 -0.021670902 -0.072809726 -0.034756005 0.000293246
0.1540521 0.080577925 0.08514421 0.066307165 0.08317136 -0.023135193 0.14627767 0.0749812
-0.117174074 0.12690438 0.13834967 -0.16649476 0.12696078 0.026395958 0.116248704 -0.11845444
0.14503208 -0.046842396 0.12558988 -0.12440059 -0.114462376 0.13930687 0.08617531 0.010673689
0.045589764 0.10051082 -0.06706707 -0.030105583 -0.08504679 0.07137759 -0.1853368 -0.015867423
0.10312883 -0.049868662 0.05173163 -0.086659625 -0.12069336 -0.0994266 0.021514755 -0.06447105
0.16770652 -0.005460857 0.112859964 -0.09645697 -0.07148646 0.099810325 -0.035143837 0.083874285
-0.03020921 0.038194496 -0.124422856 -0.073407955 -0.024451463 -0.1088037 0.040283617 -0.06319192
0.1421223 0.1612278 0.093814954 -0.031530987 0.033586886 -0.10019775 -0.10701105 0.01765135
0.16802871 -0.03845264 -0.02367519 0.093582064 0.0041602366 -0.005380352 -0.06028714 -0.031840257
-0.14937976 -0.051755413 -0.07356228 -0.11562311 0.032645162 0.04263845 0.05709614 -0.1506003
-0.14142722 -0.08684991 -0.16717578 0.08491619 -0.14526638 0.053521182 0.03340129 -0.19577016
0.14806418 0.027943604 0.09229736 0.02809982 -0.021618688 -0.039016232 0.18212752 -0.0067855963
0.09447575 -0.027773721 0.015791943 0.056525473 -0.0034686944 0.20926999 -0.11828183 0.012632888
0.045071863 -0.06997731 -0.008354145 0.1277666 0.107263565 -0.0052022533 -0.05922135 -0.10269313
0.040549375 -0.108153865 0.016763076 0.024710726 0.1691164 -0.021290366 0.014604889 -0.15311228
-0.12179777 -0.084770456 -0.012251209 -0.20164008 0.0333163 -0.10397182 -0.015226466 -0.013632652
-0.05515521 0.033400938 -0.041927304 0.13073266 -0.11226659 0.076240614 0.055713143 0.05574462
-0.07640951 -0.11372728 0.14084183 0.09934551 0.06420159 0.07441746 0.03676529 0.17005055
-0.08380333 0.121925555 -0.042280447 0.062873006 0.028084425 0.13739929 -0.018684737 0.07458953
-0.051425748 0.0016093114 -0.107929744 0.11087606 0.078797296 -0.13365251 0.034614507 0.08984483
0.039490156 0.105088264 0.029899662 0.07390876 -0.05854536 -0.12362217 -0.10781245 0.107454605
0.083333634 -0.052187353 -0.08389037 0.10985278 -0.09029297 0.014625754 0.029476823 0.12261416
-0.1378235 -0.11240397 0.14796385 0.10340045 -0.03301224 -0.09711432 -0.053695142 -0.07178874
-0.13437706 -0.1109059 0.10500508 -0.09751317 -0.036602467 -0.04217582 -0.12295111 0.05270331
-0.020382043 -0.02228193 -0.06561457 0.15751448 0.008303653 0.090227656 -0.06710674 0.015708013
-0.012309853 -0.14423504 -0.08977344 0.08484286 -0.010652334 0.039506245 0.18627706 0.0012480853
-0.12543225 0.013353667 -0.016735032 -0.09810025 -0.037858255 0.087063946 0.073494695 -0.13371767
0.033854596 0.11508779 0.13537234 0.06311506 -0.12952402 -0.052990984 -0.110099375 -0.10711125
-0.0025975904 0.08542684 0.09573887 -0.011023785 -0.084851556 0.008680066 0.086883835 -0.1356669
0.14392866 -0.021937346 0.07474096 0.024738591 0.09832157 0.07520815 -0.089419454 0.10288314
-0.14989853 -0.081526466 -0.090389214 0.13827576 0.15107052 0.08586585 0.10162743 0.06636067

cnn.6.bias f4 [10]
00000000: bfca c23d 0ffd cbbd 7516 dc3d 271b 003d
00000010: 891c e13c c5cb ffbc 13b8 433d d3ed a83d
00000020: 9c87 443d d750 463d
0.09511327 -0.099603765 0.10746471 0.031275894 0.027479427 -0.031225095 0.04778297 0.08248486
0.04798089 0.04841694
