pytorch/cnn_basics/fashion-mnist-cnn-fold-2.pt (torch, 697239 bytes, 6 tensors)

cnn.0.weight f4 [4, 1, 3, 3]
0.033411488 0.105012506 -0.3194348 -0.25136983 0.20438208 0.11379647 0.045947053 -0.1431792
0.10869218 -0.32329345 0.04197871 -0.2997842 0.2948731 -0.05433637 -0.19149268 -0.1808545
0.250975 -0.06436869 -0.20404908 -0.24180119 -0.20810518 -0.14424741 -0.26993534 -0.23573355
0.057802945 -0.14911175 -0.16769421 0.60634303 0.60078627 0.25001022 0.55681646 0.15154058
0.36877182 0.6242312 0.70409554 0.3167774
00000000: 7cda 083d cc10 d73d f58c a3be 8cb3 80be
00000010: 8949 513e 200e e93d fa32 3c3d 919d 12be
00000020: 019a de3d b886 a5be def1 2b3d 517d 99be
00000030: 9bf9 963e d08f 5ebd a816 44be ec31 39be
00000040: cc7f 803e bbd3 83bd 3ef2 50be bb9a 77be
00000050: 8619 55be 98b5 13be f734 8abe 2364 71be
00000060: c8c2 6c3d c0b0 18be 08b8 2bbe 4c39 1b3f
00000070: 21cd 193f 5701 803e 868b 0e3f 742d 1b3e
00000080: a9cf bc3e 9ecd 1f3f 9b3f 343f a630 a23e

cnn.0.bias f4 [4]
0.10113208 0.44774604 -0.14703946 0.13180104
00000000: 561e cf3d f83e e53e 8391 16be daf6 063e

cnn.4.weight f4 [64, 2704]
0.0014431832 0.012038802 -0.004152712 -0.00067983853 0.001613084 -0.0022728199 0.012516659 0.0145514235
-0.016046459 0.0070009795 0.0053123715 0.009315821 -0.004228288 0.0005515031 -0.008407259 0.014844437
-0.013729683 0.0054498697 0.0059302906 0.008048322 -0.0048621874 -0.011758504 0.01136431 -0.006180413
-0.011587281 0.016659593 -0.018165054 0.00012973523 -0.0014712269 0.013441289 0.011205528 -0.0021590001
0.014368509 -0.0037546726 0.0083457455 0.0047582053 -0.012336257 -0.008721377 0.018758707 0.016626801
-5.6427034e-06 0.003121594 0.0076956428 -0.014644604 0.005118633 0.017336948 -0.00083618675 0.0014211027
0.018120868 -0.012373194 0.015582831 0.009007197 0.0024813064 0.0051324326 -0.016055673 0.013609013
0.018605918 -0.015759788 -0.0079003405 -0.0029736091 0.0059743896 -0.002530417 0.018430483 0.018021239
-0.0053441753 -0.0025374382 0.01809184 -0.010597775 0.015051218 -0.017632747 0.010361353 0.019429857
0.0072993464 0.015541012 0.008187684 0.014787636 -0.018355444 0.018655023 0.00746166 -0.0033206574
-0.01187166 -0.01703795 -0.016800854 0.0046189013 -0.0004920942 0.008425086 0.0056672376 0.018794414
0.015752753 0.010312759 -0.014066039 -0.0031353082 -0.007104456 -0.015738975 -0.004407896 -0.00075449666
-0.0058437865 -0.0040791268 0.005274994 -0.017994033 0.010724398 -0.0028623263 0.0017347486 0.016655719
-0.015828954 -0.010716239 0.006745449 -0.015200647 -0.012184686 -0.013369073 0.0057026576 -0.005873577
-0.004507345 0.012408687 0.0024091876 0.012749774 -0.012481431 -0.0112076895 0.017164849 -0.010581449
0.009777932 -0.0147128925 0.010003225 -0.008358318 0.005853715 -0.008709268 -0.0076046446 0.0029106648
-0.0148508465 -0.012546537 -0.0034062574 0.012044875 -0.0038680392 0.0040788366 0.002646143 0.0155724725
0.016699186 -0.011798691 0.0017048332 -0.011788892 0.016374454 -0.004323296 0.0100961905 0.011748758
-0.011114755 0.0069389422 -0.00039363254 -0.015095928 -0.0068875225 -0.011373996 -0.008022068 -0.0066865617
0.007473727 -0.013041066 -0.006345644 -0.01809123 -0.01162917 -0.011176512 0.017544843 0.017109161
0.01594873 0.012240578 0.004710625 -0.0071957726 -0.001077392 -0.0059709875 0.0030237075 0.004699135
0.017926764 0.011255774 0.013260157 -0.012797407 -0.0028043042 -0.0040275916 -0.0050347554 0.01504022
0.0027843288 -0.018600034 -0.019587789 -0.00078029686 -0.0026981048 0.017308671 0.015706582 -0.017055314
0.00795495 -0.0077742706 -0.008979452 0.010520672 0.010263291 -0.013698868 0.014213876 -0.009097467
-0.0044500576 0.0012515731 0.012204941 -0.0095975455 0.017448524 -0.012206188 0.008060207 -0.01312718
0.012254145 -0.009934201 0.009292458 -0.016470866 -0.009491147 0.012807661 -0.019115344 -0.01938076
0.0034321032 -0.013154888 -0.01694936 -0.018325385 -0.0060541234 -0.0084122075 0.010103433 -0.012714641
-0.014356835 -0.0020762654 -0.0068286965 -0.018004328 -0.007554271 -0.002134331 -0.010436235 -0.013310103
-0.013040613 -0.003205689 0.018390642 -0.012905296 -0.006939222 -0.009242241 -0.0018232487 0.013928268
0.012593355 0.009397229 0.009323915 -0.0029259499 0.018669477 -0.008778797 0.0026547092 0.0016350519
0.0025550951 -0.015732327 -0.0057014907 0.010178324 -0.0066298842 0.011049408 0.0018760215 -0.006761565
0.015510138 -0.015193373 0.0018268838 -0.013943578 0.015418953 -0.011456241 -0.009229849 0.002997637
00000000: 3129 bd3a 653e 453c 7913 88bb 3137 32ba
00000010: 1e6e d33a 97f3 14bb ac12 4d3c 1869 6e3c
00000020: dd73 83bc 7968 e53b 6713 ae3b 63a1 183c
00000030: 738d 8abb bf92 103a 9abe 09bc 1536 733c
00000040: 77f2 60bc d294 b23b e252 c23b 1cdd 033c
00000050: fc52 9fbb bea6 40bc 5f31 3a3c 1085 cabb
00000060: 94d8 3dbc b379 883c e1ce 94bc 8909 0839
00000070: 2fd6 c0ba da38 5c3c 6497 373c 037e 0dbb
00000080: e569 6b3c f410 76bb 98bc 083c b8ea 9b3b
00000090: 031e 4abc 1be4 0ebc dcab 993c ee34 883c
000000a0: 7456 bdb6 a893 4c3b bb2b fc3b ecef 6fbc
000000b0: 35ba a73b 3706 8e3c 8b33 5bba 4b44 ba3a
000000c0: 3772 943c f0b8 4abc 214f 7f3c ec92 133c
000000d0: 6a9d 223b f72d a83b 3087 83bc 56f8 5e3c
000000e0: 706b 983c ac1a 81bc 6e70 01bc e2e0 42bb
000000f0: d0c4 c33b 5ad5 25bb 86fb 963c 47a1 933c
00000100: 311e afbb 264b 26bb 5735 943c 4aa2 2dbc
00000110: 6299 763c 8d72 90bc aac2 293c 5d2b 9f3c
00000120: 5b2f ef3b bb9f 7e3c a325 063c d747 723c
00000130: 285e 96bc 6bd2 983c f180 f43b 639f 59bb
00000140: 5a81 42bc 2c93 8bbc f2a1 89bc 275a 973b
00000150: e2ff 00ba 5f09 0a3c 3cb4 b93b bef6 993c
00000160: eb0b 813c d9f6 283c 3e75 66bc be79 4dbb
00000170: 7fcc e8bb 06ef 80bc 1d70 90bb 6ac9 45ba
00000180: 3c7d bfbb 32aa 85bb dbd9 ac3b 3968 93bc
00000190: 63b5 2f3c de95 3bbb 8160 e33a 9371 883c
000001a0: b9ab 81bc 2a93 2fbc ed08 dd3b 220c 79bc
000001b0: 47a2 47bc f509 5bbc 5cdd ba3b 2377 c0bb
000001c0: 5ab2 93bb ce4d 4b3c 76e3 1d3b 6ee4 503c
000001d0: ea7e 4cbc 75a0 37bc 4c9d 8c3c d05d 2dbc
000001e0: 9f33 203c 580e 71bc 91e4 233c 54f1 08bc
000001f0: 85d0 bf3b 51b1 0ebc 6230 f9bb dac0 3e3b
00000200: f750 73bc fe8f 4dbc 843b 5fbb de57 453c
00000210: ee7e 7dbb c3a7 853b ea6a 2d3b af23 7f3c
00000220: bbcc 883c 4c4f 41bc b674 df3a 3226 41bc
00000230: b823 863c 6faa 8dbb 7e6a 253c dd7d 403c
00000240: a91a 36bc 1160 e33b 7760 ceb9 e954 77bc
00000250: bab0 e1bb ff59 3abc fe6e 03bc f21a dbbb
00000260: 2be6 f43b 32aa 55bc 1fef cfbb 0f34 94bc
00000270: 4688 3ebc b01d 37bc 34ba 8f3c 8328 8c3c
00000280: e9a6 823c b58c 483c 965b 9a3b 84ca ebbb
00000290: 4737 8dba 46a8 c3bb 6529 463b 34fb 993b
000002a0: 26db 923c 236a 383c 2141 593c 37ac 51bc
000002b0: 6bc8 37bb e3f9 83bb 97fa a4bb 416b 763c
000002c0: 4979 363b 195f 98bc 9276 a0bc d68c 4cba
000002d0: b0d2 30bb eaca 8d3c 17ab 803c 96b7 8bbc
000002e0: 7b55 023c 4fbf febb 8d1e 13bc e65e 2c3c
000002f0: 5d27 283c 3871 60bc 51e1 683c 8b0d 15bc
00000300: cad1 91bb d30b a43a 3cf7 473c 063f 1dbc
00000310: 35f0 8e3c 77fc 47bc f50e 043c 6213 57bc
00000320: 9cc5 483c 0fc3 22bc 653f 183c e9ed 86bc
00000330: c180 1bbc 39d7 513c c897 9cbc 66c4 9ebc
00000340: 23ed 603b 9987 57bc 62d9 8abc 1e1f 96bc
00000350: ab61 c6bb 5bd3 09bc df88 253c 1251 50bc
00000360: ee38 6bbc f411 08bb 42c3 dfbb d07d 93bc
00000370: d189 f7bb 22e0 0bbb befc 2abc 9e12 5abc
00000380: 4ca8 55bc 8916 52bb f9a7 963c bc70 53bc
00000390: 6a62 e3bb c56c 17bc 13fa eeba 6433 643c
000003a0: 5c54 4e3c d6f6 193c 55c3 183c 4bc1 3fbb
000003b0: bbf0 983c f2d4 0fbc a1fa 2d3b 3d4f d63a
000003c0: 6273 273b 15e1 80bc 92d3 babb fcc2 263c
000003d0: 803f d9bb 9408 353c d6e4 f53a 1e90 ddbb
000003e0: 3c1e 7e3c a0ed 78bc 0c74 ef3a 9b73 64bc
000003f0: c79f 7c3c f5b2 3bbc cb38 17bc 0174 443b

cnn.4.bias f4 [64]
0.0049598054 0.021855902 -0.0018415458 -0.022857482 0.01671491 -0.0076305764 0.01788125 0.0065612406
0.0029316891 0.019864714 -0.0048824376 0.010627612 0.01542707 0.019935722 0.015416562 0.0042841267
0.029488977 0.0047290465 -0.013742071 -0.003113067 0.0011026452 -0.017437117 -0.00681185 -0.018821836
0.010893912 -0.0062538534 -0.0004318573 0.023289949 0.0064814473 0.016153976 -0.009160103 0.01915787
0.0029661525 -0.0066583776 0.025465261 0.024818491 0.008672063 0.01819479 -0.01834643 0.01369494
0.014214422 0.0096289 0.018286154 -0.016554702 -0.0089964615 0.02108265 0.015961172 -0.005527871
-0.0042724 0.005822103 -0.003553642 -0.0029705146 0.012690382 0.0050987205 0.0139372405 -0.0023626108
-0.0035989329 0.0076357936 -0.00327932 -0.007914775 0.010181648 0.019502193 0.0035593167 0.01873818
00000000: dd85 a23b 260b b33c 0660 f1ba 9d3f bbbc
00000010: b5ed 883c ea09 fabb b37b 923c adff d63b
00000020: 9521 403b 53bb a23c dbfc 9fbb 6f1f 2e3c
00000030: d2c1 7c3c 3d50 a33c bf95 7c3c dc61 8c3b
00000040: de92 f13c 1ef6 9a3b 6c26 61bc 9904 4cbb
00000050: a286 903a 49d8 8ebc f035 dfbb 4030 9abc
00000060: 617c 323c 20ed ccbb e86a e2b9 90ca be3c
00000070: 5262 d43b 5855 843c 4214 16bc f7f0 9c3c
00000080: c863 423b 852e dabb 869c d03c 2650 cb3c
00000090: 4515 0e3c 3e0d 953c 414b 96bc be60 603c
000000a0: 9be3 683c 89c2 1d3c d8cc 953c ba9d 87bc
000000b0: e565 13bc 86b5 ac3c 01c1 823c 2523 b5bb
000000c0: 7dff 8bbb 57c7 be3b 38e4 68bb f7ac 42bb
000000d0: 52eb 4f3c 2b13 a73b 0659 643c 08d6 1abb
000000e0: 13dc 6bbb ae35 fa3b dce9 56bb f9ac 01bc
000000f0: edd0 263c 10c3 9f3c 6d43 693b d080 993c

cnn.6.weight f4 [10, 64]
-0.11985056 -0.004365625 -0.12346038 0.10814024 -0.027879028 0.029091246 0.0024710463 0.060565323
0.1728853 0.013420454 -0.1283002 0.03266382 0.071424134 0.000107719396 -0.14515732 -0.10716072
0.18501319 0.13111737 0.03275251 0.16462965 0.052367132 0.12388415 -0.10278945 -0.021231864
-0.008514478 0.040680286 -0.119763635 -0.13155147 -0.087789595 -0.023300556 -0.032701157 0.042662915
-0.119549304 0.07990032 0.121688716 0.077673376 -0.026547812 -0.0012499412 0.045716226 -0.11107955
-0.031725336 0.0035641636 -0.07274103 -0.031221336 0.13202268 0.10558134 0.106368236 -0.10965629
0.14393215 -0.02661197 0.0154856825 0.06492877 -0.06674917 0.099673964 -0.113279216 -0.08230007
-0.032260608 0.1342057 0.12643607 -0.021285743 -0.15414275 -0.16203353 0.05332176 0.061562095
-0.21017392 -0.019357141 0.10878297 -0.11732336 -0.094393186 0.14685526 -0.06941181 0.17864662
-0.15657225 0.028182931 0.07708171 0.10487959 0.07169467 -0.087762125 0.12167892 -0.104090415
-0.05802946 -0.059564523 0.053077683 0.23456205 -0.10174577 -0.09131094 0.054850362 -0.052797362
-0.021879788 -0.011280255 -0.02401132 -0.14505051 -0.024453934 0.020439787 -0.039900567 -0.06310357
0.05543168 -0.030219689 -0.13241999 -0.008932619 0.00569501 -0.12857132 -0.10767709 0.0009098081
0.0686158 0.0024136784 -0.06193218 -0.08405864 -0.07685968 0.13553192 -0.07943385 -0.14588286
-0.15272833 0.06753588 -0.12180778 0.121406555 0.008499876 -0.05833254 0.14360489 0.1803657
-0.078196995 0.0774996 0.04297353 0.019184383 -0.12087417 -0.14685549 0.11462397 0.02854748
-0.052623782 -0.0636656 -0.045405425 -0.110970855 -0.055484626 0.15384376 -0.085275665 0.1305967
0.0012492082 0.06080128 0.08072636 0.06827316 0.07561492 0.12426683 0.023024466 0.13797636
-0.038395457 0.10784281 0.026608357 0.023313714 0.07149789 -0.12242189 -0.029806232 -0.11373631
-0.007505153 -0.08989464 -0.017763525 0.052970022 0.04510144 -0.08539858 -0.09765192 0.068273306
0.021500943 -0.168227 0.010318013 -0.0037499634 -0.042011127 0.049299408 -0.037886266 -0.09718095
-0.023002025 0.0010889843 -0.060901444 0.10750279 0.115760416 0.11165767 -0.1295802 0.02027539
0.1689419 -0.08622085 -0.0027215562 -0.08707234 0.12750718 0.033795718 -0.12756546 -0.116752796
-0.05819239 0.14835712 0.13361928 0.00038819166 0.09038371 -0.106869355 0.049222574 -0.101107076
-0.02115308 0.1587984 0.041838463 -0.14340533 -0.110709116 0.09680971 -0.040261336 -0.0706939
0.13360128 0.0010339587 0.094250366 0.14951545 -0.10712382 0.032984275 -0.023724955 0.10059172
-0.05309483 -0.14095613 0.15074581 0.08749973 0.093700476 0.11009871 -0.04942173 -0.015488026
-0.095784396 0.12099608 0.10300367 0.03977424 0.10404105 -0.12620102 0.045988154 0.039319202
0.0124418875 0.17371343 -0.12741463 -0.056509275 -0.0819532 0.09562787 -0.009871681 -0.06311284
-0.04899623 -0.11788 0.018005751 -0.0571106 0.0636018 0.03192525 -0.009928025 -0.10676537
0.007490141 -0.06302077 0.085997455 -0.0028976337 0.0018969002 0.07915267 0.054335326 0.004787267
-0.04445021 -0.0548463 -0.11833113 -0.046621293 -0.16304868 -0.13365056 -0.017256347 -0.12510501
00000000: 3674 f5bd 840d 8fbb ccd8 fcbd a178 dd3d
00000010: 8f62 e4bc c450 ee3c 47f1 213b 5813 783d
00000020: d808 313e 77e1 5b3c 2161 03be 7fca 053d
00000030: d146 923d 69e7 e138 1fa4 14be 1477 dbbd
00000040: 1974 3d3e a243 063e 7f27 063d ad94 283e
00000050: eb7e 563d f9b6 fd3d 4683 d2bd 72ee adbc
00000060: 4f80 0bbc 5fa0 263d a346 f5bd 6eb5 06be
00000070: 08cb b3bd cfe0 bebc a6f1 05bd 4fbf 2e3d
00000080: 44d6 f4bd c7a2 a33d ef37 f93d 3813 9f3d
00000090: cc7a d9bc 11d5 a3ba f040 3b3d ad7d e3bd
000000a0: 6df2 01bd be94 693b 40f9 94bd e3c3 ffbc
000000b0: f430 073e 083b d83d 97d7 d93d 7a93 e0bd
000000c0: f362 133e 5901 dabc a9b7 7d3c 60f9 843d
000000d0: cab3 88bd dd21 cc3d effe e7bd f08c a8bd
000000e0: b323 04bd 386d 093e 7578 013e 705f aebc
000000f0: 99d7 1dbe 1eec 25be eb67 5a3d 8928 7c3d
00000100: d537 57be de92 9ebc 9bc9 de3d 3b47 f0bd
00000110: 3751 c1bd 3a61 163e c727 8ebd 24ef 363e
00000120: 7a54 20be e4df e63c 04dd 9d3d 1ccb d63d
00000130: a8d4 923d a1bc b3bd cc32 f93d 5b2d d5bd
00000140: 4db0 6dbd eef9 73bd fc67 593d 0931 703e
00000150: 1660 d0bd 3b01 bbbd c6aa 603d 0c42 58bd
00000160: 3e3d b3bc d2d0 38bc 63b3 c4bc 1f88 14be
00000170: 9e53 c8bc 5771 a73c c76e 23bd 723c 81bd
00000180: 540c 633d 488f f7bc 1b99 07be 1f5a 12bc
00000190: 359d ba3b 33a8 03be ce85 dcbd 3080 6e3a
000001a0: 7186 8c3d ce2e 1e3b 99ac 7dbd f026 acbd
000001b0: 9c68 9dbd e1c8 0a3e 37ae a2bd 5162 15be
000001c0: d164 1cbe 4050 8a3d 5b76 f9bd 00a4 f83d
000001d0: 1043 0b3c 1aee 6ebd 290d 133e c9b1 383e
000001e0: bf25 a0bd 1cb8 9e3d 0305 303d 9128 9d3c
000001f0: e08c f7bd 4961 16be f9bf ea3d 68dc e93c
00000200: 098c 57bd 1c63 82bd 0afb 39bd b044 e3bd
00000210: d943 63bd 3889 1d3e 02a5 aebd 24bb 053e
00000220: 79bc a33a c30a 793d dd53 a53d ccd2 8b3d
00000230: ffdb 9a3d 9c7f fe3d ce9d bc3c ad49 0d3e
00000240: 8e44 1dbd b1dc dc3d c5f9 d93c 67fc be3c
00000250: 7c6d 923d 54b8 fabd 332c f4bc 95ee e8bd
00000260: c9ed f5bb ae1a b8bd d084 91bc 18f7 583d
00000270: 4abc 383d 73e5 aebd bbfd c7bd e0d2 8b3d
00000280: bf22 b03c b343 2cbe e20c 293c f2c1 75bb
00000290: dc13 2cbd 2dee 493d a12e 1bbd ce06 c7bd
000002a0: be6e bcbc 40bc 8e3a cb73 79bd 6c2a dc3d
000002b0: cc13 ed3d c7ac e43d acb0 04be 9318 a63c
000002c0: 1bff 2c3e 8f94 b0bd 235c 32bb fc52 b2bd
000002d0: 3e91 023e 616d 0a3d 85a0 02be 171c efbd
000002e0: 255b 6ebd eeea 173e 7ed3 083e 3486 cb39
000002f0: 181b b93d 52de dabd 9c9d 493d 3a11 cfbd
00000300: 3949 adbc 0c9c 223e cf5e 2b3d d9d8 12be
00000310: 76bb e2bd 2b44 c63d 12e9 24bd f7c7 90bd
00000320: c6ce 083e e685 873a 5606 c13d 941a 193e
00000330: bc63 dbbd 851a 073d d65a c2bc 0803 ce3d
00000340: f779 59bd ce56 10be 1c5d 1a3e 0f33 b33d
00000350: 09e6 bf3d 6f7b e13d 716e 4abd 7dc1 7dbc
00000360: 9c2a c4bd cbcc f73d 97f3 d23d 50ea 223d
00000370: 7913 d53d d73a 01be 135e 3c3d 2c0d 213d
00000380: 0fd9 4b3c efe1 313e fb78 02be 4576 67bd
00000390: 14d7 a7bd 8bd8 c33d d5bc 21bc 4e41 81bd
000003a0: 45b0 48bd 126b f1bd cc80 933c ceec 69bd
000003b0: a941 823d 0dc4 023d 28a9 22bc cda7 dabd
000003c0: db6f f53b 0911 81bd 6f1f b03d 3ae6 3dbb
000003d0: 69a1 f83a cc1a a23d b88e 5e3d 82de 9c3b
000003e0: 6c11 36bd 84a6 60bd 9757 f2bd f8f5 3ebd
000003f0: 3cf6 26be b1db 08be 2f5d 8dbc 871b 00be

cnn.6.bias f4 [10]
-0.008899261 0.12170102 -0.06184156 0.112381645 0.041089416 0.058386285 -0.030364338 0.075706325
-0.11978758 -0.0323231
00000000: 35ce 11bc 623e f93d 934d 7dbd 5928 e63d
00000010: 604d 283d 7526 6f3d a2be f8bc eb0b 9b3d
00000020: 3153 f5bd 3a65 04bd
