pytorch/cnn_basics/fashion-mnist-cnn-fold-1.pt (torch, 697239 bytes, 6 tensors)

cnn.0.weight f4 [4, 1, 3, 3]
0.28698832 0.04314678 -0.23814535 0.24742045 -0.063442096 -0.2777307 0.10303932 -0.13173786
-0.24062043 0.48083684 0.14029281 -0.17935294 0.38968346 0.02175596 0.39938658 0.43069574
0.41038814 -0.13345376 0.11970481 -0.13938004 -0.13476956 0.030084262 0.030331982 -0.12958346
-0.32258725 -0.21125686 -0.020427784 0.36112285 0.61007255 0.21872959 0.49626768 0.6099083
0.024201412 0.37799358 0.1334486 0.56348264
00000000: 22f0 923e aeba 303d 60dc 73be c95b 7d3e
00000010: eeed 81bd b832 8ebe 4706 d33d 4ae6 06be
00000020: 3465 76be 3f30 f63e eba8 0f3e 4ca8 37be
00000030: 9784 c73e 8e39 b23c 667c cc3e 2784 dc3e
00000040: 651e d23e 1aa8 08be cc27 f53d a4b9 0ebe
00000050: 0801 0abe 4573 f63c c77a f83c 87b1 04be
00000060: 282a a5be b853 58be 2b58 a7bc 18e5 b83e
00000070: b72d 1c3f a6fa 5f3e cc16 fe3e f322 1c3f
00000080: 0a42 c63c 6088 c13e c0a6 083e 6640 103f

cnn.0.bias f4 [4]
-0.25245336 0.049654827 0.51109654 0.056366827
00000000: 9141 81be dc62 4b3d 39d7 023f e7e0 663d

cnn.4.weight f4 [64, 2704]
-0.00085439347 0.0070180423 -0.009669955 -0.012342215 -0.010516333 -0.012980389 0.016827356 -0.017961865
-0.018565869 0.017304327 -0.0040367534 -0.015690759 -0.014923994 0.009539356 0.011198266 -0.013414829
-0.0054645794 -0.0038444595 0.015265512 -0.011228623 0.010441318 0.015325794 0.015459186 -0.007189082
-0.013118831 -0.0015918536 0.0030660029 0.0041568237 0.004643148 -0.013929242 -0.012212294 0.009151016
-0.00756904 -0.01257607 -0.009893352 0.014359221 -0.01705607 -0.0028567696 -0.017400134 -0.00016642932
-0.010412191 -0.016858289 0.012362027 0.015215105 -0.0038305365 0.0036530076 -0.009296956 0.017330015
0.014160781 0.0126937395 -0.019289665 0.009791582 -0.009831993 -0.008252546 0.012657185 -0.0057129413
0.009498576 0.005883079 0.014126482 -0.0016491229 0.00208099 -0.006021934 -0.013859569 0.010579396
-0.009467722 0.011990729 0.01614132 -0.01603601 0.014002189 -0.010259278 0.01653099 0.016298639
0.00638289 -0.015870208 -0.0031948271 -0.019014308 0.010808484 -0.018198887 -0.008216329 0.007021024
-0.001157486 0.007289617 0.0042362083 -0.0036075402 -0.017497543 0.014549597 -0.0020078113 -0.0011234819
0.016666356 -0.015059097 0.0011963402 0.00648301 -0.011855966 0.009052341 -0.01484411 -0.0036560989
-0.0018902727 -0.01797969 -0.012846039 -0.014174001 -0.010576447 -0.016474046 0.003459776 0.012220124
-0.011345746 0.013630587 0.00975868 -0.008454749 -0.0019361551 0.010978469 0.015054858 -0.017719893
0.0035005677 0.015381412 0.015922187 -0.010602639 0.0028419404 -0.011812802 0.018486297 0.006048721
-0.0065240017 -0.0010475888 0.013837811 -0.016675688 0.0076382603 0.009373051 0.00018577607 -0.0012385271
-0.008446946 0.015748072 0.0036714938 0.0069620963 0.011743019 0.0033013886 0.0048590517 -0.018709308
0.017417377 -0.004436895 0.014627 -0.003826837 0.014101658 0.003781782 0.00064791454 0.010381191
-0.0043095513 -7.480743e-05 0.0040299585 0.01433496 -0.009994383 -0.00868087 0.0039413036 -0.008310372
-0.0049140314 -0.012764115 0.014818525 0.0014304811 -0.006813732 -0.013982017 -0.005328684 0.008290546
-0.0053841043 -0.004113229 -0.006044898 0.0033994103 -0.0076814196 -0.010045137 -0.0015035063 0.009542257
0.007257765 -0.0006818234 0.0011787774 0.0014389104 -0.01853523 -0.013761001 0.011833128 0.0019947274
-0.014375721 0.019003557 0.011149983 0.00778717 -0.0065246695 -0.007747798 0.009587869 0.017720975
0.011840122 0.005755487 -0.0012365043 -0.008242464 0.008056948 0.0049979007 -0.010501096 0.0034565292
-0.009486324 -0.01789806 0.0009364465 -0.012721281 0.01731541 0.0044143056 -0.011193972 -0.009479116
-0.0031753709 0.0013374835 0.016790822 0.0035576967 0.00042986986 -0.004308314 0.013272398 0.011311229
0.018852085 0.0073297843 0.008307971 -0.008220501 0.006977986 0.00681134 -0.0005634916 -0.01129724
-0.010993067 0.011556518 -0.017436357 0.00711512 -0.0142372055 -0.008186965 -0.014405285 0.011838808
0.0039030898 0.0029568987 -0.014821317 0.0041454 -0.015944423 0.002687491 -0.013395198 0.008571298
-0.017371787 0.0064920764 0.010939537 -0.014341381 0.013134197 0.010956376 0.001203711 0.00695681
0.0120215 0.00947184 0.010916992 -0.012623417 -0.019083481 -0.0010419111 -0.0146801695 -0.013300648
-0.0032421474 0.017952617 -0.00014594466 0.0032521524 0.015146543 -0.013885677 -0.01114008 0.014568798
00000000: 60f9 5fba 9bf7 e53b bb6e 1ebc 0037 4abc
00000010: b34c 2cbc b3ab 54bc 86d9 893c c324 93bc
00000020: 7317 98bc cec1 8d3c be46 84bb e889 80bc
00000030: c583 74bc f64a 1c3c ef78 373c dfc9 5bbc
00000040: 3710 b3bb 54f3 7bbb 331c 7a3c 42f8 37bc
00000050: 1012 2b3c 0a19 7b3c 8748 7d3c 6492 ebbb
00000060: 5ef0 56bc bea5 d0ba feee 483b f735 883b
00000070: 8c25 983b 7a37 64bc 1316 48bc 25ee 153c
00000080: b605 f8bb dc0b 4ebc ba17 22bc f042 6b3c
00000090: 2cb9 8bbc a438 3bbb ba8a 8ebc 8883 2eb9
000000a0: e597 2abc 651a 8abc 198a 4a3c c748 793c
000000b0: bd09 7bbb 4c67 6f3b 4252 18bc adf7 8d3c
000000c0: 9f02 683c 67f9 4f3c 5c05 9ebc df6c 203c
000000d0: 5e16 21bc b035 07bc 1560 4f3c a033 bbbb
000000e0: ea9f 1b3c d8c6 c03b c372 673c 6227 d8ba
000000f0: 3861 083b a553 c5bb 3f13 63bc 3455 2d3c
00000100: 811e 1bbc c374 443c cd3a 843c f35d 83bc
00000110: 7069 653c 8816 28bc 006c 873c b984 853c
00000120: 9027 d13b 3d02 82bc 4e60 51bb e5c3 9bbc
00000130: 1116 313c d515 95bc c89d 06bc 9e10 e63b
00000140: c9b6 97ba bddd ee3b e4cf 8a3b 7b6c 6cbb
00000150: 0257 8fbc 6f61 6e3c 7c95 03bb cc41 93ba
00000160: e287 883c 6eba 76bc 84ce 9c3a 6e6f d43b
00000170: 873f 42bc 4550 143c b634 73bc 299b 6fbb
00000180: 07c3 f7ba 254a 93bc 3178 52bc 123a 68bc
00000190: d548 2dbc 94f4 86bc 69bd 623b ea36 483c
000001a0: 82e3 39bc d352 5f3c dfe2 1f3c ca85 0abc
000001b0: 96c6 fdba 09df 333c a7a8 763c 4f29 91bc
000001c0: c869 653b 5102 7c3c 3f6f 823c b1b6 2dbc
000001d0: d93f 3a3b 7c8a 41bc 9370 973c 5934 c63b
000001e0: 4bc7 d5bb 3f4f 89ba fcb7 623c 749b 88bc
000001f0: 5f4a fa3b 6d91 193c e2cc 4239 1356 a2ba
00000200: 0f65 0abc 1a02 813c 729d 703b 4c22 e43b
00000210: cb65 403c 1c5c 583b ae38 9f3b 4344 99bc
00000220: e3ae 8e3c 5f63 91bb 16a6 6f3c accb 7abb
00000230: a40a 673c c6d7 773b cfd8 293a df15 2a3c
00000240: 2337 8dbb efe1 9cb8 be0d 843b 2edd 6a3c
00000250: 7bbf 23bc 353a 0ebc 0d26 813b 3a28 08bc
00000260: e205 a1bb 9420 51bc 66c9 723c fb7e bb3a
00000270: ba45 dfbb d414 65bc 3e9c aebb 12d5 073c
00000280: 246d b0bb 44c8 86bb 4814 c6bb a4c8 5e3b
00000290: 6bb4 fbbb 5c94 24bc 4d11 c5ba 2057 1c3c
000002a0: 8cd2 ed3b 65bc 32ba 3581 9a3a d299 bc3a
000002b0: 32d7 97bc d275 61bc bcdf 413c f9b9 023b
000002c0: 2588 6bbc 59ad 9b3c 6bae 363c 842b ff3b
000002d0: e5cc d5bb 3ee1 fdbb 7016 1d3c 942b 913c
000002e0: 12fd 413c 8698 bc3b 3312 a2ba 660b 07bc
000002f0: 4a01 043c 6ec5 a33b ca0c 2cbc f086 623b
00000300: 876c 1bbc f49e 92bc dc7b 753a eb6c 50bc
00000310: 0cd9 8d3c e1a5 903b ec66 37bc 4b4e 1bbc
00000320: e219 50bb 804e af3a e88c 893c 3f28 693b
00000330: 2860 e139 c22c 8dbb 7974 593c bc52 393c
00000340: b06f 9a3c b02e f03b 281e 083c 48af 06bc
00000350: 97a7 e43b a931 df3b 48b7 13ba 0f18 39bc
00000360: 441c 34bc 8d57 3d3c b1d6 8ebc f425 e93b
00000370: 2b43 69bc 9f22 06bc 2504 6cbc 8ff7 413c
00000380: fbca 7f3b 87c8 413b 1cd5 72bc 23d6 873b
00000390: e19d 82bc 9e20 303b 8877 5bbc a16e 0c3c
000003a0: 474f 8ebc 7cbb d43b be3b 333c 1df8 6abc
000003b0: d130 573c 5f82 333c d7c5 9d3a f4f5 e33b
000003c0: d3f5 443c c72f 1b3c 2fdd 323c 73d2 4ebc
000003d0: f654 9cbc bc90 88ba 1885 70bc f6ea 59bc
000003e0: 357a 54bb 5e11 933c b908 19b9 1022 553b
000003f0: 3529 783c c080 63bc e284 36bc f8b1 6e3c

cnn.4.bias f4 [64]
-0.0074022543 -0.0016832568 0.013763404 -0.006673465 0.0018381003 -0.017648565 -0.005550144 0.0045132143
-0.0069761006 0.016984573 0.015824972 0.02133839 0.014504285 -0.008483263 0.01999953 0.009482806
0.031036424 -0.0057326816 -0.003347654 0.003752935 0.01701193 0.022178475 0.019293863 0.0019597707
0.00076784205 0.0048631257 0.0020759092 0.022908788 -0.008808741 -0.017642343 -0.005877571 0.03097155
0.001979109 0.01716418 -0.019293293 0.03226981 0.0011177531 -0.009601959 0.003496998 0.02686748
0.024881337 0.02154617 0.008634844 0.013673767 0.011970488 -0.011031764 -0.010945399 -0.0077892994
0.016697112 -0.006220658 0.0046987776 -0.0027871702 -0.006352458 0.011196426 -0.0024385974 0.024953997
-0.024402075 0.0056355023 0.023704093 0.031973682 -0.02068485 0.0072879377 -0.027637282 0.009060801
00000000: 9c8e f2bb baa0 dcba e77f 613c 15ad dabb
00000010: 69ec f03a b993 90bc fbdd b5bb 96e3 933b
00000020: c697 e4bb 3b23 8b3c 5fa3 813c d9cd ae3c
00000030: 61a3 6d3c 62fd 0abc 0ed6 a33c c55d 1b3c
00000040: 1940 fe3c 38d9 bbbb 5064 5bbb cdf3 753b
00000050: 9a5c 8b3c a2af b53c 2a0e 9e3c 7f6f 003b
00000060: 0249 493a db5a 9f3b fa0b 083b 36ab bb3c
00000070: 8a52 10bc ad86 90bc a498 c0bb 0cb8 fd3c
00000080: f0b3 013b e59b 8c3c f80c 9ebc 592d 043d
00000090: 9281 923a 8951 1dbc e42d 653b 3019 dc3c
000000a0: f2d3 cb3c 9881 b03c 2979 0d3c f007 603c
000000b0: de1f 443c 92be 34bc 5554 33bc 613d ffbb
000000c0: 62c8 883c a9d6 cbbb 34f8 993b f5a8 36bb
000000d0: 4828 d0bb 3771 373c e0d0 1fbb 536c cc3c
000000e0: dce6 c7bc 05aa b83b 162f c23c d6f6 023d
000000f0: 4673 a9bc a7cf ee3b 9567 e2bc c173 143c

cnn.6.weight f4 [10, 64]
-0.10718984 0.050292775 0.0013391154 0.028945098 0.10186221 -0.11922776 -0.0940791 0.012681581
0.04050639 0.07979118 0.16516691 0.06722809 -0.08789987 0.010955443 0.15857743 0.0564506
0.1022869 0.048598085 -0.1062914 -0.07344821 -0.17741995 0.13177449 -0.060446005 -0.09123165
-0.16166712 0.06258094 0.0049199047 -0.14709902 0.07343966 -0.016798923 -0.028201213 -0.017716916
0.14160846 -0.10171558 -0.020632092 -0.17527066 0.11041665 -0.04867566 0.038372662 -0.08172023
0.087521024 -0.019443825 0.035345364 0.059343785 -0.08132523 0.04657019 -0.16361158 -0.09035295
0.13958149 -0.06449938 0.07631839 0.11184914 0.08961091 0.12813845 -0.0458629 -0.10574104
-0.08278337 0.034771997 0.032589547 0.04399837 -0.08093751 0.10980113 0.0048110797 0.11266073
-0.08012281 0.05103679 0.15951803 -0.1138877 0.0740262 0.03958593 0.10923596 -0.08185077
0.03516969 0.18398869 0.07327141 0.1590614 0.13774082 -0.012503933 0.15983044 0.0011532995
0.13863346 -0.15827335 -0.07597769 -0.041292842 -0.183101 0.014603314 -0.069087245 -0.108459726
0.028833497 0.003371475 0.046948746 0.16912927 0.06600197 0.011436023 -0.07294518 0.13535626
-0.06289527 -0.1440122 0.10607475 0.18864052 0.042409167 -0.026521664 -0.110369824 0.099667914
-0.039518055 0.11125396 -0.025854914 -0.027147662 -0.052444477 -0.15179619 -0.2248244 0.10595105
0.07886596 -0.072765075 -0.18115748 -0.065327615 -0.094481625 -0.15609095 -0.12691283 -0.061113633
0.01229747 -0.0081762355 0.061486576 0.032704853 -0.076072924 -0.10025672 -0.034041245 -0.09392211
0.1095122 -0.08197092 0.13005859 -0.048626695 -0.063446455 0.08772283 0.023725254 0.10993664
0.11379182 -0.12218008 0.05988082 0.09854116 -0.10114411 0.0107844975 0.027287683 -0.14584273
-0.1060916 -0.11185556 -0.053650837 0.09341182 -0.16153593 -0.05411309 -0.0867325 -0.043551255
-0.12487464 -0.019943152 -0.113989964 -0.08303809 0.019795021 -0.00040783038 0.034170598 0.1282889
-0.07150831 0.0343518 -0.0932145 0.058750622 -0.06943899 0.09412617 -0.14678864 0.06828372
0.054445166 0.0070945346 -0.14350359 -0.054188922 0.074097656 0.11257588 0.16491231 -0.114945784
0.0694105 -0.027578922 -0.0986541 -0.034105718 -0.0049098786 0.13984792 0.11144215 -0.12497466
-0.003403742 0.054523915 0.003088116 -0.10170393 -0.085920826 0.15107763 0.1269727 -0.11855794
0.06955593 -0.13761713 0.13526554 -0.02615393 0.020602873 -0.018429989 0.025954721 0.049379505
-0.016569292 -0.14306946 0.11912531 -0.12357706 0.034026083 0.11766752 -0.074637115 -0.02476388
0.1535544 0.16412707 -0.0404326 0.06820021 -0.100016415 -0.063489966 0.08269088 -0.111829214
0.12208823 -0.06327212 -0.08493094 0.10387671 -0.010892327 0.1346256 -0.124641836 -0.017556407
0.15960719 -0.030104829 0.08393886 0.10975423 0.08068932 0.049125407 -0.07586675 0.13102713
-0.09768923 0.056330197 0.13838017 0.126477 0.061288644 -0.058223475 0.0046165856 -0.0688164
0.08212274 -0.1303633 0.0071237744 0.080313005 0.017107971 -0.07642864 -0.047164448 -0.034035813
-0.11171511 -0.13878104 0.12941617 0.10083229 0.1139312 -0.07378627 -0.029214341 0.0067460174
00000000: 5986 dbbd ccff 4d3d 4285 af3a 451e ed3c
00000010: 229d d03d af2d f4bd 8bac c0bd 68c6 4f3c
00000020: 07ea 253d 8f69 a33d 8421 293e e1ae 893d
00000030: d904 b4bd 757e 333c 1f62 223e bf38 673d
00000040: cb7b d13d c90e 473d 4eaf d9bd 046c 96bd
00000050: 93ad 35be e4ef 063e 3b96 77bd a9d7 babd
00000060: 118c 25be 702a 803d 2737 a13b 20a1 16be
00000070: 8867 963d e59d 89bc 3b06 e7bc 1123 91bc
00000080: cf01 113e 4250 d0bd a204 a9bc 277a 33be
00000090: 2022 e23d 2160 47bd a72c 1d3d f05c a7bd
000000a0: 393e b33d a848 9fbc 4dc6 103d 7812 733d
000000b0: d88d a6bd 62c0 3e3d cb89 27be f80a b9bd
000000c0: 73ee 0e3e 4018 84bd d14c 9c3d 2911 e53d
000000d0: ed85 b73d ba36 033e bcda 3bbd c28e d8bd
000000e0: 548a a9bd 156d 0e3d 9e7c 053d a337 343d
000000f0: 91c2 a5bd 6adf e03d 43a6 9d3b abba e63d
00000100: 6e17 a4bd f40b 513d b258 233e f43d e9bd
00000110: 0c9b 973d db24 223d 1ab7 df3d 60a1 a7bd
00000120: 180e 103d 8867 3c3e 520f 963d fee0 223e
00000130: ee0b 0d3e 4cdd 4cbc 97aa 233e 4f2a 973a
00000140: eef5 0d3e 6912 22be 319a 9bbd af22 29bd
00000150: d47e 3bbe bd42 6f3c 9d7d 8dbd 2220 debd
00000160: 3a34 ec3c f7f3 5c3b 544d 403d 3930 2d3e
00000170: 0a2c 873d 285e 3b3c 4864 95bd d59a 0a3e
00000180: 3ccf 80bd ef77 13be b83d d93d fb2a 413e
00000190: 3cb5 2d3d f643 d9bc 9309 e2bd b11e cc3d
000001a0: afdd 21bd 1ed9 e33d afcd d3bc c664 debc
000001b0: 05d0 56bd 7670 1bbe 5e38 66be ddfc d83d
000001c0: 7a84 a13d db05 95bd 5981 39be 7cca 85bd
000001d0: 957f c1bd 4ed6 1fbe 70f5 01be 4a52 7abd
000001e0: 547b 493c 9ef5 05bc 59d9 7b3d 86f5 053d
000001f0: 1fcc 9bbd 6553 cdbd d56e 0bbd 3c5a c0bd
00000200: ef47 e03d 5fe0 a7bd 142e 053e c92c 47bd
00000210: 37f0 81bd 07a8 b33d 775b c23c 7626 e13d
00000220: b00b e93d 8d39 fabd 9745 753d f3cf c93d
00000230: a524 cfbd 76b1 303c 6b8a df3c cc57 15be
00000240: 8e46 d9bd 8714 e5bd fbc0 5bbd b24e bf3d
00000250: ad69 25be b0a5 5dbd cfa0 b1bd cd62 32bd
00000260: 46be ffbd d25f a3bc 9273 e9bd e00f aabd
00000270: 2b29 a23c 11d2 d5b9 78f6 0b3d 2a5e 033e
00000280: f372 92bd 79b4 0c3d 3ee7 bebd 7ea4 703d
00000290: 0736 8ebd 39c5 c03d c34f 16be 56d8 8b3d
000002a0: e501 5f3d 4579 e83b 9bf2 12be 34f5 5dbd
000002b0: 83c0 973d 2f8e e63d c6de 283e b268 ebbd
000002c0: 1827 8e3d 31ed e1bc 290b cabd 70b2 0bbd
000002d0: 0ce3 a0bb 4b34 0f3e c83b e43d b7f2 ffbd
000002e0: 5111 5fbb 7854 5f3d fd61 4a3b 264a d0bd
000002f0: 42f7 afbd 18b4 1a3e 2205 023e 81ce f2bd
00000300: 5773 8e3d 81eb 0cbe 0d83 0a3e c440 d6bc
00000310: 5bc7 a83c 7dfa 96bc ff9e d43c 2a42 4a3d
00000320: 53bc 87bc cd80 12be f8f7 f33d f815 fdbd
00000330: ef5e 0b3d abfb f03d 58db 98bd 9fdd cabc
00000340: 5d3d 1d3e ed10 283e a79c 25bd 8dac 8b3d
00000350: 68d5 ccbd 0707 82bd d659 a93d b706 e5bd
00000360: 6509 fa3d d094 81bd 46f0 adbd 50bd d43d
00000370: bb75 32bc 4bdb 093e 3844 ffbd 74d2 8fbc
00000380: 1170 233e 679e f6bc 23e8 ab3d d3c6 e03d
00000390: 7140 a53d b937 493d 0760 9bbd fa2b 063e
000003a0: 4b11 c8bd 7eba 663d 88b3 0d3e 3083 013e
000003b0: cd09 7b3d bd7b 6ebd ba46 973b 9def 8cbd
000003c0: f82f a83d f57d 05be 8d6e e93b 257b a43d
000003d0: 0426 8c3c 9e86 9cbd 822f 41bd 2369 0bbd
000003e0: e4ca e4bd 9e1c 0ebe ac85 043e 2981 ce3d
000003f0: c354 e93d 421d 97bd ea52 efbc b20d dd3b

cnn.6.bias f4 [10]
-0.08024119 -0.052587595 -0.056917787 -0.049710095 -0.036708828 -0.033427294 0.101835385 0.08728382
0.11952191 -0.08232241
00000000: 7e55 a4bd 1766 57bd a022 69bd d09c 4bbd
00000010: ff5b 16bd 0feb 08bd 128f d03d dcc1 b23d
00000020: e7c7 f43d a798 a8bd
