pytorch/cnn/kfold/fashion-mnist-cnn-fold-2.pt (torch, 178071 bytes, 6 tensors)

cnn.0.weight f4 [4, 1, 3, 3]
000000 88 4d 69 be c0 30 58 3d 4c ba 80 be e0 80 d3 3e
       -0.22783482 0.052780867 -0.25142133 0.4130926
000010 58 be 22 be 86 bc 64 3e ed ac f6 3d f7 3e 8d bd
       -0.15892923 0.22337541 0.12044702 -0.06896775
000020 da d4 8f 3e 4f e4 93 be 14 fe 85 3d 2f 21 8f 3e
       0.2809208 -0.28885123 0.06542602 0.27955005
000030 1b 0c a2 be d7 a6 73 3e 1e 1f 44 be 36 ac c2 be
       -0.3164986 0.23794113 -0.19152495 -0.38022012
000040 a4 0f db bd f9 cc 87 bd 8f ea 74 3e 69 1d a1 3e
       -0.106963426 -0.06630892 0.23917602 0.3146775
000050 a6 50 01 3e f3 56 06 3f 01 d9 73 3e b4 7b a3 bd
       0.12628421 0.52476424 0.23813249 -0.07982579
000060 a7 37 bb 3e 70 74 71 3d 04 d0 e2 3e e1 ef 2c 3e
       0.36565897 0.058948934 0.44299328 0.16888382
000070 31 e3 a7 bd 8c f0 90 3e 6d e5 5e be b3 7c 82 be
       -0.0819763 0.28308523 -0.21767206 -0.25485763
000080 e4 0f 18 be 83 1c 85 be 0c c3 98 3e 53 3f 16 be
       -0.14849812 -0.25998315 0.2983631 -0.14672594

cnn.0.bias f4 [4]
000000 48 ae 2b 3e e9 21 14 3f bc 7a 94 3a ee 35 53 be
       0.16765702 0.5786424 0.0011328082 -0.20626041

cnn.4.weight f4 [64, 676]
000000 2a 34 55 3c fc 1b ed 3c da 7d 17 bd 53 e1 dc bb
       0.013012925 0.028944008 -0.036985256 -0.006740728
000010 4d 08 ec 3c f0 93 9b bc b2 d4 01 3b 2d 00 ed ba
       0.028812552 -0.01899144 0.0019810614 -0.0018081717
000020 70 af b2 bb de 68 42 3b a0 59 6d bc e1 23 b7 3c
       -0.0054530427 0.0029664556 -0.0144867 0.022355976
000030 28 3d e2 3b cf 58 ae 3c b9 a8 d9 bb a7 be 0b 3d
       0.006904263 0.021282582 -0.0066424278 0.034117367
000040 56 ee fc 3c 09 3f 03 3d 20 3f 5f 3c 35 4e 56 bc
       0.030875366 0.032042537 0.01362589 -0.013080169
000050 28 13 76 3c c9 ff e6 3b 55 3a f1 bc a7 e2 91 3c
       0.015019216 0.007049535 -0.02944676 0.017808272
000060 b4 81 ba 3c 45 79 09 3d 2d 3f 9b bc fc 0e 96 3c
       0.022766925 0.033562917 -0.018951023 0.018317692
000070 9d 10 00 bd 85 3e 8d 39 b7 1c 8b bc a0 65 45 bc
       -0.031265844 0.00026940196 -0.016981466 -0.012048155
000080 8e 55 12 3d b7 14 07 bd 24 88 18 3d 66 0e 1f 3d
       0.035726123 -0.03297874 0.03723921 0.03883209
000090 d7 a5 23 bc 33 fb 0b 3d b7 36 21 3c 9e 68 49 bb
       -0.00998827 0.03417511 0.009839705 -0.0030732523
0000a0 c5 61 aa bc fa 75 20 3c 29 b2 e2 3c e3 9b d6 3c
       -0.020798573 0.009793753 0.027672844 0.02619738
0000b0 3c 24 f5 bc c3 a1 09 bd 7c f4 7b 3c 72 0e e2 bc
       -0.029924504 -0.033601534 0.015378114 -0.027594779
0000c0 f5 13 9d bb d2 41 73 bc ce 55 45 38 b9 9b 81 bc
       -0.004793639 -0.014847236 4.7048372e-05 -0.015821325
0000d0 43 d8 10 bc 50 c1 11 3d 79 e6 df 3b 77 f4 9b 3b
       -0.008840623 0.035584748 0.0068328944 0.004759367
0000e0 7d ff 9c bc fc 54 86 3b af 4d e2 3b 1a 50 0a 3c
       -0.019164795 0.0040994864 0.0069062333 0.008441949
0000f0 4a 50 05 3d 84 49 e2 3c 56 0d c7 3c 11 84 51 3c
       0.032547273 0.027622946 0.024298351 0.012787835
000100 17 91 b8 bc 61 1b 02 bd eb 33 1a bc 35 f4 34 bc
       -0.022530122 -0.03176439 -0.009411792 -0.011044552
000110 f6 98 6f 3c 8c bb 80 3c 55 60 13 bd c6 cc 4b 3c
       0.014623871 0.01571443 -0.03598054 0.0124389585
000120 87 e8 b4 3a aa 0b cc 3b b0 da fb bc 57 34 3c bc
       0.0013802209 0.0062269764 -0.030743927 -0.011487088
000130 9b 27 8f 3c b4 e1 71 bb 17 d6 b7 bc 33 bd 65 3c
       0.01747494 -0.0036908211 -0.022440953 0.014022159
000140 a7 5f 67 bc 2d ea 9c 3c e9 20 ab 3c 0e c0 79 bc
       -0.014121926 0.019154632 0.020889716 -0.015243543
000150 8d 63 e7 bc 01 12 a6 3c 62 1f 04 bc d0 98 12 bd
       -0.028245712 0.020272257 -0.008064123 -0.035790265
000160 21 b6 58 bc 55 0b f3 3c b9 f5 ed 3c 8a 9d b1 3c
       -0.013227017 0.02966849 0.029047834 0.021681566
000170 6f e0 93 bc a1 92 ee bc 99 b0 df 3c 4d 80 e0 3c
       -0.018051354 -0.029122652 0.027305888 0.027404929
000180 18 25 db 3a 89 6c 06 bd 88 78 1c bd 0a 80 78 3b
       0.0016719429 -0.03281835 -0.038200885 0.0037918114
000190 0c 33 da bb bd ff ab 3c eb 6f e4 3c bd c5 84 3c
       -0.0066589173 0.020995969 0.027885398 0.01620757
0001a0 05 84 05 bd 7f 59 c0 3c 71 48 ca 3c 37 1b e3 3c
       -0.032596607 0.023480175 0.024692746 0.027722938
0001b0 39 70 90 3a 70 c2 16 3d 0c 4a 7f bc 9a df 2d bb
       0.0011019773 0.036806524 -0.015581619 -0.0026530982
0001c0 82 7b 01 3d dd 04 01 3d f6 f6 db 3c 33 28 cb 3c
       0.031611927 0.03149878 0.026851159 0.024799442
0001d0 51 d6 f1 bb 09 80 3a 3c 31 ae c5 bc cd 84 ba 39
       -0.007380285 0.011383065 -0.024130912 0.0003557563
0001e0 34 1c 03 3c 82 e5 ca bc 49 c3 22 3c b0 b3 f0 bc
       0.00800233 -0.024767641 0.009934255 -0.029382557
0001f0 13 e0 ae 3a 69 68 5f bc ae 86 e8 3c 96 86 e0 3c
       0.0013341926 -0.013635733 0.028384533 0.027407926
000200 af a0 00 bd ce 23 84 bc 8d 13 af 3c 56 07 a3 3c
       -0.03140324 -0.016130354 0.021371627 0.019900959
000210 d3 cc 2f bc 52 c1 0e 3d 38 20 9e bc 9e ad 03 3d
       -0.010729986 0.034852333 -0.019302472 0.032147996
000220 05 ec a0 bb 80 4c a3 bc 2b ee 3a bc 98 41 b4 3c
       -0.004910948 -0.019933939 -0.011409323 0.022003934
000230 92 84 3a 3c 23 d5 1e 3d a0 68 0f 3d fb f0 79 3c
       0.011384146 0.03877748 0.035011888 0.015255208
000240 cf c6 c1 bc ee 3c 0b 3c 44 25 54 bb 5d 46 0f 3d
       -0.02365437 0.0084984135 -0.0032370845 0.034979213
000250 a8 d2 03 3d 14 1f ea bc 63 0f b9 3c c2 f3 0d bd
       0.03218332 -0.028579272 0.022590345 -0.034656294
000260 ff bf 0d bd 00 14 13 bd e3 40 10 bd e0 db 07 3d
       -0.03460693 -0.035907745 -0.03521813 0.033168674
000270 c9 c4 9b bc 6d bf 7b bb b0 5a df 3b 87 55 13 3d
       -0.019014733 -0.003841366 0.0068162307 0.035970237
000280 d8 de d5 3c db 55 c2 3c 40 3b 97 3b 22 f4 22 bd
       0.026107237 0.02372258 0.0046152174 -0.039783604
000290 0e 16 97 3a 6b a6 c4 ba b8 d4 51 bc 69 ee 0e bc
       0.0011526959 -0.001500321 -0.012807064 -0.008723834
0002a0 19 d5 0f bd 91 a4 9c ba 8b d7 13 3d 6f f9 f8 bc
       -0.035115335 -0.00119509 0.03609423 -0.030392377
0002b0 c9 4d 9b 3c 88 ce 85 bc cb 3f 21 3d a5 9e dc bc
       0.01895799 -0.016333833 0.03936748 -0.026931116
0002c0 f1 54 07 3c 3b 28 e1 3b af 2f 65 3c 21 95 e2 bc
       0.008259998 0.006871251 0.013988419 -0.027659
0002d0 00 f9 11 bd 55 1a 09 bb 67 82 52 bb 21 6f 87 b9
       -0.035637856 -0.0020920236 -0.0032121183 -0.00025832004
0002e0 48 d3 05 bc 3f 7f d2 bc ac 55 13 bc 41 3e 65 bc
       -0.008168049 -0.025695441 -0.008992594 -0.013991893
0002f0 81 f4 95 3c 01 79 9f 3c 31 c1 a1 3c 95 91 34 3c
       0.018305065 0.019466879 0.019745441 0.011021038
000300 51 77 04 3d f7 c4 26 bc ef 8a b7 3b 08 ce 2c 3c
       0.03234035 -0.010178796 0.005601279 0.010547169
000310 d1 bb 0d bd 30 93 36 3c ea 27 c6 bc 9d a5 a7 3b
       -0.034602944 0.011143491 -0.024188954 0.005116178
000320 69 82 41 bc 48 10 05 3d 00 80 16 3d ba d2 1c bd
       -0.011810877 0.03248623 0.036743164 -0.038286902
000330 b7 77 39 3c 26 fb de bc a8 00 bc 3b a2 f4 b5 bb
       0.011320046 -0.027219366 0.005737383 -0.005552844
000340 dc c4 8c 3c 21 95 b3 3c 1d 21 7a bb 9a 4e 69 bc
       0.017183714 0.021921696 -0.003816671 -0.0142399315
000350 f8 cc 53 bb 81 cf c6 bc aa 05 12 3c 5f 2b d3 3c
       -0.0032318216 -0.024268867 0.008912483 0.025777517
000360 7e a3 c0 3c 8c 67 9e bc 85 b0 fc bc ab 19 09 3c
       0.02351546 -0.019336484 -0.03084589 0.008367936
000370 97 2e 04 3c e0 bd c0 3c a6 e1 0c bd 47 03 71 3b
       0.0080677485 0.02352804 -0.034394883 0.0036775635
000380 ca 6f 90 3c 1c 70 04 3c 1c 54 c2 3b e3 bc 69 ba
       0.01763143 0.00808337 0.005930437 -0.0008916391
000390 22 dc 0b bd 15 4a f6 3c 17 4e be 3b 01 78 24 bd
       -0.034145482 0.030064622 0.005807649 -0.040153507
0003a0 7c ba c4 bc 12 5f 0a bd 44 16 f1 3c bf 50 46 3b
       -0.024014704 -0.033782072 0.029429562 0.003026053
0003b0 87 d5 dd 3b 7f 2a cc ba 5f 61 e3 3c dd 8c 11 bc
       0.006769839 -0.001557663 0.027756391 -0.008883682
0003c0 1b b5 50 3c a5 cc 59 ba 35 41 8c bc fe 33 24 bd
       0.012738491 -0.00083083875 -0.017120937 -0.040088646
0003d0 80 0e 96 bc 45 78 9c 3b f0 2f 0c bd 35 33 5e bc
       -0.018317461 0.0047750794 -0.034225404 -0.013562013
0003e0 d0 c4 49 3b 3f 72 d8 3c c2 31 b1 bc d5 e6 21 bd
       0.0030787475 0.026421664 -0.021630172 -0.03952678
0003f0 e6 ec c5 ba 2d dd 9c 3c ce 98 15 3b 36 3d 66 bc
       -0.0015100508 0.019148434 0.0022826674 -0.01405268

cnn.4.bias f4 [64]
000000 0a d2 20 39 3f 1d 04 3d e2 ce c8 bc 89 67 14 3c
       0.00015337035 0.032254454 -0.024512712 0.009057888
000010 d4 3e ff bb e3 ae a1 bc 2a 3f 3a 3c 12 ca d8 bc
       -0.007789472 -0.019736713 0.011367599 -0.026463542
000020 39 f5 64 bc 4c 1a eb 3c 5b a4 b8 39 ce bf da 3c
       -0.013974481 0.028699063 0.0003521767 0.026702788
000030 7c 48 fa 3c 22 7d a8 bc c6 45 1a 3d c1 c5 0d bd
       0.030552141 -0.02056748 0.037664197 -0.03461242
000040 47 5a 28 3d 87 51 88 bc 65 9c 7b bc b0 e8 43 3d
       0.04110172 -0.016640438 -0.015357112 0.04782933
000050 de ce 29 bd 70 83 03 bd cf 41 38 bc 13 7b 1f 3d
       -0.04145705 -0.03210777 -0.011246159 0.038935732
000060 2c 01 05 bd f4 85 c5 3c 73 ba 96 bc 62 5a e9 3c
       -0.03247182 0.024111725 -0.018399453 0.02848548
000070 58 b2 b0 3c 5b ea 00 bb 34 2a 29 3d a3 5a bb bb
       0.021569416 -0.0019670937 0.041300014 -0.005717592
000080 26 31 0c 3b 21 e4 52 3b 49 c9 cd 3c 30 c5 01 3d
       0.00213916 0.0032179432 0.025120394 0.031682193
000090 95 a9 82 3c 01 48 42 3c f4 35 1f 3d 3b a8 04 bd
       0.015950004 0.011857987 0.038869813 -0.032387
0000a0 03 10 c2 bc c3 dc 26 3d 12 2a 12 3b 52 9f a9 bc
       -0.023689276 0.04073788 0.0022302908 -0.020705853
0000b0 42 e6 89 bc 3b 78 90 bb 63 28 a7 bc 83 c2 d3 3c
       -0.016833428 -0.004408864 -0.020405 0.025849586
0000c0 ba 79 1f bb 66 86 51 bc 9d a2 9b bc 8e a6 9c bb
       -0.002433403 -0.012788391 -0.018998438 -0.004780597
0000d0 51 8a 1d 3d d8 d6 52 3d cf 86 c8 bb ba 55 a9 3b
       0.038461987 0.051474422 -0.006119586 0.00516769
0000e0 2c c2 2d 3d ad f3 33 3c cf ef 99 3c 86 ff a0 3c
       0.042421505 0.01098339 0.018791107 0.019653093
0000f0 fc 4b d2 3c 6f 9b 27 3d 9d 58 fe 3c 9c ca 18 3c
       0.025670998 0.040919717 0.031048113 0.00932565

cnn.6.weight f4 [10, 64]
000000 e7 b8 ae bd e5 14 9d 3d 66 c2 dd 3d 5d f6 1d 3d
       -0.08531361 0.07670001 0.10828094 0.03856503
000010 f2 b9 a5 3c 38 c1 f5 3b e6 28 ff bd a9 59 0d be
       0.020230267 0.00749984 -0.12458973 -0.13803734
000020 50 64 23 3d 6c f9 f4 3d fd 97 ad 3c 25 89 fa 3d
       0.039890587 0.11961636 0.021190638 0.122331895
000030 66 6d 05 bd d0 dd d7 bd 1c 7e ea bd 26 48 d2 bd
       -0.032575034 -0.10540354 -0.11449835 -0.102676675
000040 fd 97 9d bd e4 df 6b 3d e0 16 94 bd e0 a6 ef bd
       -0.07695005 0.057586566 -0.072309256 -0.11701751
000050 7b 02 45 bd d7 dd 9e bc 8e 86 56 3d ca 81 39 3d
       -0.04809807 -0.01939289 0.052374415 0.045289792
000060 51 f8 e1 bd b5 df 0b 3e 1f ae ad bd a9 2c d5 bd
       -0.11033691 0.13659556 -0.084804766 -0.10408909
000070 97 1c ed bd e9 fb f2 bc 9e ba 8e 3c 70 40 ae 3d
       -0.11577719 -0.029661136 0.01742297 0.08508384
000080 e7 ff 8c bd e5 27 ca bd 01 b6 6c 3c d4 b9 6c bd
       -0.06884747 -0.098708905 0.01444769 -0.057794407
000090 0d a3 e6 bd 25 5b b6 3d 1d 8b 24 3d f6 87 d4 bd
       -0.11261568 0.08904103 0.04017173 -0.10377495
0000a0 60 d3 28 bd 4a a6 4a bd 0e 78 09 3e 8e a3 ac 3d
       -0.041217208 -0.04947499 0.13424703 0.08429633
0000b0 c3 67 86 bd 79 e8 94 bc a1 4a 9d 3d ad 1b f8 bc
       -0.0656276 -0.018177258 0.0768025 -0.030286634
0000c0 52 e9 e9 3c 1a 6f 5b bd 01 3d c2 3d 9a 0c ef bd
       0.028553639 -0.05357275 0.09484292 -0.116723254
0000d0 a2 c0 5d bc eb 1d d0 3d b9 12 b1 bd 35 cf ac bd
       -0.013534697 0.101619564 -0.08646149 -0.08437959
0000e0 be 81 1c be e6 dc f0 3c 41 2f f1 bd 59 40 53 bd
       -0.15283868 0.029402208 -0.11776591 -0.05157504
0000f0 95 1c 9c bd fe 45 bf bd 8e f4 5a bc 92 23 2a 3d
       -0.07622639 -0.09339522 -0.01336397 0.04153783
000100 bc 06 22 bd 6c 46 19 bd 95 80 52 bd 9b ad 1c be
       -0.039557204 -0.037420675 -0.051392157 -0.153006
000110 5d 18 72 3d 1b f5 45 3c 3c 06 29 3c fb 70 5d bd
       0.059105266 0.0120823635 0.010316428 -0.054062825
000120 12 d7 74 3d 8c b5 96 3c d3 9f 2d 3e ea 19 2f bd
       0.05977542 0.018397115 0.169555 -0.042749323
000130 8e 05 ee 3d 38 a5 82 bc 52 b0 f1 3c 2f 8c ce 3c
       0.11622153 -0.015947923 0.029503021 0.02521333
000140 a6 ea bf bd b1 f3 03 3e 42 5f be 3d 19 5a 0f bd
       -0.093709275 0.1288593 0.09295513 -0.034998033
000150 45 eb e1 bd 46 6c eb 3c fb d0 7a bb 67 2e 88 3d
       -0.11031202 0.028738152 -0.0038271535 0.066494755
000160 24 3b 51 3d 10 96 c3 bd 30 a4 04 3c a9 e4 15 be
       0.05108179 -0.095501065 0.008095786 -0.14638008
000170 92 85 10 3d 4f 79 98 bd 24 bc f2 3d c8 0b f2 3c
       0.035283633 -0.07445013 0.11852291 0.029546633
000180 35 79 c2 3d 26 c9 2b be 52 c5 28 3e fb e8 26 3e
       0.09495775 -0.16775951 0.16481522 0.16299812
000190 d7 5c 64 bc 30 0f 13 be 98 44 0a 3e 48 69 e1 3d
       -0.01393815 -0.14361262 0.13502729 0.11006409
0001a0 5b b0 6f bd 4b c4 20 be 99 ec 0e 3e b3 f4 85 3c
       -0.058517795 -0.1569988 0.13957442 0.016352033
0001b0 89 4b cd 3d 8e 0a 9f 3d 83 15 b4 bd c6 87 e7 3b
       0.10024173 0.07765685 -0.087931655 0.007065746
0001c0 0d 2f 5f bd 8d 48 ed 3b 12 f1 b4 3d f2 f2 db 3d
       -0.05448823 0.0072413147 0.08835043 0.107396975
0001d0 d3 ce 09 3e 6a 0e 4e bd 52 46 1f 3d e9 9b 57 bd
       0.13457803 -0.050306715 0.038885422 -0.052638922
0001e0 73 fe 77 3c 81 23 e0 3c c4 b4 e1 3d e8 a1 1b be
       0.015136349 0.02736068 0.110208064 -0.15198481
0001f0 56 ad cd 3c 2f 1e eb 3d 7b ab 08 3e 9d 0a e4 bd
       0.025107067 0.114803664 0.13346665 -0.11134837
000200 12 f0 a5 3b 31 99 cc bb 4a 09 5e 3d c6 5e 9c 3d
       0.005064019 -0.006243848 0.054208077 0.07635264
000210 c2 58 e9 bc 5f 67 07 3e 44 30 ec bd 08 6f 02 be
       -0.028484706 0.13223027 -0.115326434 -0.12737668
000220 1a 29 fc 3d 0b d8 a8 3d 56 0e bf 3d 9e 6f 3f 3d
       0.12312527 0.08244332 0.09328906 0.046737306
000230 13 cb cb bd 57 34 12 3d 1c ce 76 bc 67 d9 b8 3d
       -0.09950843 0.035694446 -0.015063789 0.09025841
000240 45 bc 1a 3e 8f cf c4 bd ee 6e 19 3e 26 81 1a be
       0.15110882 -0.09609901 0.14983723 -0.15088329
000250 df 9b 9c bd b4 ee 0f 3e e9 24 0e be 28 56 8d bd
       -0.076469176 0.14055902 -0.13881268 -0.069011986
000260 b9 35 b3 3d 06 9a 88 bd 8a c2 65 bd 02 a5 85 bd
       0.08750481 -0.06670003 -0.05609373 -0.06525613
000270 4b 71 fd 3b ae 57 cc bd cc c8 1f be 63 d3 be 3b
       0.007734453 -0.09977661 -0.15603942 0.005823539
000280 03 fa b8 bd 6c 05 cf 3c 03 2b bc bb 96 d2 be bb
       -0.09032061 0.02527114 -0.005742432 -0.0058234436
000290 66 1b d4 bc c5 11 b7 3b ba 6d d5 bd 59 bf 98 3c
       -0.02589197 0.005586835 -0.10421319 0.01864593
0002a0 f1 1c 77 3c 95 60 b1 bd ec 3d 1f 3e fc 63 2a bd
       0.015082584 -0.08661 0.15550965 -0.04159926
0002b0 51 20 87 3d 87 2c ab bd ee e0 63 bd b6 19 01 be
       0.06597961 -0.08358102 -0.05563443 -0.12607464
0002c0 26 6c 93 3d 0b d5 21 bd 3d 87 9d 3d a6 77 a4 bd
       0.07198362 -0.039509814 0.0769181 -0.08030634
0002d0 b6 64 4a bd ca de c0 3b 2d a0 83 bd 6d d4 98 bc
       -0.04941245 0.0058859335 -0.064270355 -0.01865598
0002e0 6b b0 fc 3b ab a7 87 3d 17 5b 1c 3d 4b ef 0e bc
       0.0077114603 0.06623777 0.038172808 -0.008724044
0002f0 57 35 15 bd b0 73 88 3c 6e 0a e0 bb 56 3c a2 3d
       -0.036427822 0.016656727 -0.006837181 0.079216644
000300 fa 2e 6b bd 09 12 c8 3c 8a 96 11 3d e4 ac 38 bc
       -0.057417847 0.024422662 0.035543956 -0.011271689
000310 ec 6b 38 bd 38 6c 54 bd af 64 0b bd 3f f0 9a 3b
       -0.045024797 -0.051861018 -0.034031566 0.0047283466
000320 a3 98 fa ba 6d a7 fb 3d 56 36 21 3e 22 bc 05 3e
       -0.0019118976 0.12287793 0.15743384 0.13060048
000330 bb 93 f3 bd 5a 97 ba 3c f3 47 6c 3d 22 89 27 bd
       -0.11893412 0.022777248 0.057685804 -0.040902264
000340 57 61 19 be 78 9b 02 be c0 8c f7 bd e0 ab bb bd
       -0.14978538 -0.12754619 -0.12087393 -0.09163642
000350 26 d3 e2 3d 97 49 a4 3c 8d 95 a6 3d 59 3b 0b 3c
       0.110754296 0.020054622 0.08133993 0.008498036
000360 19 a1 a3 bd d3 07 69 bd ee 6e 6d 3a eb 19 b9 bd
       -0.07989711 -0.056892227 0.00090573623 -0.090381466
000370 ec 24 2c bd a0 57 0a bd 5c c1 15 bc 6d f5 13 3e
       -0.0420274 -0.033774972 -0.009140339 0.14449091
000380 cb 45 76 3b 06 83 a4 3c a2 2a 4e 3d ec f3 9e bc
       0.003757822 0.020082008 0.050333627 -0.01940342
000390 1d 46 a8 3c 2d 97 d5 bc 7f 71 6d 3d 66 f9 e2 3d
       0.020541245 -0.026073063 0.057969566 0.11082725
0003a0 27 a4 d7 3d fd 38 07 be ff c2 93 3d 05 de a1 3d
       0.105293564 -0.13205333 0.07214927 0.07903675
0003b0 3f 2e 3e 3c 89 51 a9 3d 33 9f 89 bd 2b 6f d9 bc
       0.011607706 0.08267505 -0.06719818 -0.026542267
0003c0 62 df 00 3e 96 96 8f bc 7f 84 78 bb 3e 8b f1 3b
       0.12585214 -0.01752786 -0.003792077 0.0073713353
0003d0 2d 50 94 3d 40 01 5f 3d 32 43 fd bb 33 7a 89 bd
       0.07241855 0.05444455 -0.0077289576 -0.06712761
0003e0 89 72 8f bd e9 60 ab 3d c6 10 9d 3d 58 e5 94 3c
       -0.07004268 0.083680935 0.07669215 0.018175766
0003f0 ae 3d 75 bd e0 58 d6 bd d3 7e 1e 3e f4 ca 49 bd
       -0.059873275 -0.1046617 0.15478067 -0.049265817

cnn.6.bias f4 [10]
000000 08 51 ef 3d 74 2f 37 bd 4d 48 86 3d 87 b2 e3 3c
       0.11685377 -0.04472299 0.06556759 0.02779509
000010 50 d1 a4 3d 7d 12 c0 bd 43 d8 57 3d 51 d3 67 3d
       0.08047736 -0.09378526 0.052696478 0.05659801
000020 d5 7f c5 3d a8 32 a7 bd
       0.09643523 -0.08163959
