pytorch/cnn/kfold/fashion-mnist-cnn-fold-0.pt (torch, 178071 bytes, 6 tensors)

cnn.0.weight f4 [4, 1, 3, 3]
000000 43 be aa 3d 1f 62 57 3d 8c c3 fd 3c 83 5e bd bd
       0.08337071 0.05258381 0.030977033 -0.09246542
000010 42 04 d3 bd 71 88 e1 3d 48 ac 95 be d5 8a 22 be
       -0.103035465 0.11012352 -0.29233003 -0.15873273
000020 58 c8 6b 3e ff 67 b6 3e d6 c3 a3 be 81 52 13 be
       0.23025644 0.35626218 -0.31985348 -0.14386941
000030 a8 32 43 3d d6 dc 66 be 17 77 8d be 90 c3 0f bd
       0.04765573 -0.2254518 -0.2762992 -0.035098612
000040 25 41 2c 3e fc ea 9e 3e 6b ff 70 3e 56 2d 1d be
       0.16821726 0.31038654 0.23534934 -0.15349326
000050 54 2c cd bd 2c a7 06 3d 4c ee 98 be fd f7 36 be
       -0.100182205 0.03287427 -0.29869306 -0.17868038
000060 63 2f 52 3e 76 db 92 3c d0 18 81 be e0 fe af 3e
       0.20525889 0.017926913 -0.25214243 0.34374142
000070 48 e6 9b 3e e0 ec 92 bc ae 33 50 bb 0d 2e 60 3e
       0.30449128 -0.017935216 -0.0031769085 0.21892567
000080 d3 47 d8 3e de 9d 0e be ae fa f5 3e 7f a1 e6 3d
       0.42242298 -0.13927409 0.48042816 0.11261272

cnn.0.bias f4 [4]
000000 b9 9a 0c bd 6a 39 8d ba ab bb e0 3e c7 be 8a 3a
       -0.034327243 -0.0010774557 0.4389318 0.001058542

cnn.4.weight f4 [64, 676]
000000 9b 03 10 bd b9 47 1b bc dd fe f5 3c 6f a7 aa 3c
       -0.03515969 -0.009477549 0.030028755 0.020831792
000010 2c dc f1 bb c4 33 ac bc b8 6c 93 bc 4f 66 48 bc
       -0.007380983 -0.021020778 -0.017996177 -0.0122314235
000020 05 99 e9 3c 59 41 03 3c ec c1 cf 3c 1f ab 0b bd
       0.028515348 0.008011186 0.025361024 -0.03409874
000030 73 ef e8 bb 5f 14 e8 bc 29 d7 2e bc 7f 1b 44 3b
       -0.0071086227 -0.028330026 -0.010671415 0.0029923616
000040 a2 82 42 bc 6e ae 00 bd 8a 99 c9 bc c5 26 9d 3c
       -0.011871966 -0.03141635 -0.024609346 0.019183526
000050 45 6b d3 3c 02 59 ca 3c 09 f9 df 3c db 68 08 3d
       0.025807986 0.024700645 0.027340429 0.033303123
000060 33 a8 b7 3c 4a d0 ad bc cc c3 18 bc 08 31 17 bc
       0.02241907 -0.021217484 -0.009324025 -0.009227999
000070 57 e9 cf 3c 19 fb 98 3c 99 a0 30 3c 49 61 96 3b
       0.02537982 0.01867442 0.010780477 0.004589234
000080 bf e8 b9 bb a0 73 a4 bc 07 84 a3 3a 43 8d aa bb
       -0.0056734974 -0.020074666 0.001247526 -0.005204828
000090 e6 87 64 3a d5 d3 a5 bc 6e 2b fa bc 65 c7 11 bd
       0.000871776 -0.020242611 -0.030538287 -0.035590548
0000a0 05 68 ad 3c 5f a6 8f 3c ab ac 27 bd c0 02 03 bb
       0.021167764 0.017535387 -0.040936153 -0.0019990653
0000b0 61 f1 e9 bc 07 a6 c5 3b 09 a2 11 bd e8 75 aa 3b
       -0.028557481 0.006031755 -0.03555492 0.005202044
0000c0 04 18 3a bc 95 19 29 3b 1b bb 53 3b ea 96 c9 bc
       -0.011358265 0.0025802602 0.0032307568 -0.024608094
0000d0 83 59 0a bd f8 51 d7 3c f6 02 0b 3a 60 c0 af bc
       -0.03377677 0.026284203 0.00053028704 -0.021454036
0000e0 8e 30 03 3d f2 c5 90 bc 80 54 0e bd 9e f5 0a 3d
       0.032028727 -0.017672513 -0.034748554 0.033925645
0000f0 93 fd 00 3d 86 2e d3 bc d4 85 3e 3c 2e 83 fd 3c
       0.031491827 -0.02577902 0.011628587 0.03094634
000100 1b 46 76 3b 58 e3 cc bc 6c e2 8a bc 66 c4 19 bc
       0.0037578407 -0.02501075 -0.01695367 -0.009385204
000110 1c fe a4 bc 86 88 28 3c cc 93 10 3c c1 6c c3 3c
       -0.0201407 0.010286456 0.0088243 0.023855569
000120 34 b8 72 bb b2 23 17 bd 53 28 09 bd 73 00 01 3d
       -0.0037036063 -0.036899276 -0.03348572 0.03149457
000130 8c 46 07 3d 48 da bb bb be 72 c6 bc ae 25 05 bd
       0.033026263 -0.0057328083 -0.024224635 -0.032506637
000140 d7 34 ba 3c 15 06 55 3c 08 3e 05 bd 31 e0 80 3c
       0.022730274 0.013001938 -0.03252986 0.015731903
000150 90 61 9e ba ff 45 0c bd f2 bd d1 3b c9 12 1f 3d
       -0.0012083519 -0.03424644 0.006400817 0.038836274
000160 14 06 3f bc 25 cc 0f 3c 03 89 1f 3c 8e 0b 5e 3c
       -0.011659164 0.008776699 0.009737256 0.01355256
000170 72 dd 9a 3a c6 59 c4 bb 5d 16 71 bc 81 18 02 3c
       0.0011815263 -0.005992147 -0.0147148045 0.0079404125
000180 7b e1 47 bc 3e 99 11 bd 74 8c cd 3c 6b 91 dc bb
       -0.012199755 -0.035546534 0.025091387 -0.0067312024
000190 46 a1 4e bc a2 83 fe 3c 97 1c 45 bc 9f 76 8f bc
       -0.012611693 0.031068627 -0.012030742 -0.017512618
0001a0 16 5f 2c 3a da bb b7 3c 4d c3 12 bd 15 32 02 bd
       0.0006575448 0.022428442 -0.035830785 -0.031786043
0001b0 a0 12 c8 bc 25 96 1b bc 5f 59 4f bc 54 9d a1 bb
       -0.024422944 -0.009496246 -0.012655585 -0.004932085
0001c0 cd b1 15 3d 95 5d ca 3b d6 32 9f bc 46 9e 3c bb
       0.036546517 0.0061757066 -0.01943342 -0.0028780862
0001d0 9c 46 cc 3c ef a5 92 3c 0e 44 01 bd d7 24 0e 3d
       0.024936013 0.017901389 -0.031559043 0.034703102
0001e0 9c b4 8d 3c d8 f1 e2 3b 8e da 17 3d e4 37 ec bb
       0.017298035 0.0069258027 0.037073664 -0.007208811
0001f0 98 27 04 bd 95 55 12 3d 34 3d a2 bc d4 06 5f 3c
       -0.032264322 0.03572615 -0.019804575 0.013612468
000200 4f 37 af 3c ef bd 44 3b 7e c0 52 3c 50 e7 5b 3c
       0.021388678 0.0030020436 0.0128632765 0.013421848
000210 7a c7 0e bd 2e 4f df bc ff 63 67 3c 3c 08 e7 3c
       -0.034858204 -0.027259436 0.014122962 0.028202169
000220 1b 70 ee bb ab c9 c8 bc 47 a7 97 3c 6d 45 e1 bc
       -0.0072765476 -0.024510225 0.018512381 -0.027498925
000230 45 75 02 bd 88 fe 9c 3b a3 5b b7 bc 67 5d 50 bb
       -0.03185012 0.0047910847 -0.022382563 -0.0031793953
000240 7a cb b9 3c 1d 5d f1 3c 30 cd 0f 3b 32 c8 e2 bc
       0.022680033 0.029463345 0.002194237 -0.027683351
000250 e3 24 37 bc 69 7f 10 bd 01 1d 3a bc c3 59 04 bd
       -0.011178228 -0.035277758 -0.011359454 -0.032312166
000260 ef 5d 00 bd 90 23 6e bc 1d 7e e4 3c 96 a5 f7 3c
       -0.031339582 -0.014534846 0.027892167 0.030230325
000270 0e f5 01 3d a9 c1 98 bb 81 32 9f 3c 72 c5 03 3d
       0.031727843 -0.004661758 0.019433262 0.03217072
000280 ff 39 90 b9 be ff bf 3c 56 8c eb 3c 2f dd 24 bc
       -0.0002750903 0.023437377 0.02875344 -0.0100625
000290 28 04 93 3b b5 12 ec bc 84 bf 3c 3c ca cf 3d 3c
       0.0044865794 -0.028817514 0.01152027 0.011585185
0002a0 49 a3 d6 3b ad f5 44 3c a5 33 94 bc 14 61 80 3c
       0.006550227 0.012021464 -0.018091032 0.01567129
0002b0 a7 37 1c bd 51 68 04 3d 84 51 ab 39 3d c2 c3 bb
       -0.03813901 0.032326046 0.00032676395 -0.0059740827
0002c0 da 49 bb 3a 41 51 9c 3c 84 9e 9a 3c 4f f2 86 3c
       0.0014288977 0.019081714 0.018874414 0.016472964
0002d0 1c 96 b8 3c 32 b5 5c bc 88 a0 75 bc 31 58 1d bd
       0.022532515 -0.013470935 -0.014991887 -0.038414184
0002e0 cd 1b 12 bd e7 83 f2 3c 7b 9f 18 bb 68 1d 57 bc
       -0.035671044 0.029603912 -0.0023288417 -0.01312957
0002f0 91 ad f3 bc 36 54 87 bc 2b d1 09 bd 97 7e dc bc
       -0.029745849 -0.016519647 -0.033646744 -0.026915831
000300 71 bf 00 3c a7 56 0e 3d bc 05 8a bc bb 51 22 3b
       0.007858143 0.034750607 -0.016848437 0.0024767953
000310 8d dd 3a 3b 01 91 cb bc 4e 43 88 bc f8 95 bb 3c
       0.0028513402 -0.024849417 -0.016633656 0.02289866
000320 7d 34 9c 3b 06 c5 9c bc 01 b8 b4 bc c9 4e 42 bb
       0.0047669993 -0.019136917 -0.022060396 -0.002964901
000330 c3 53 ed 3c b0 1e 8f bc af a0 38 3b d7 0c 92 3c
       0.028970605 -0.017470688 0.0028171947 0.017828388
000340 e4 0a f7 3b f2 a0 33 bc b6 0f 88 bc 70 e7 57 3c
       0.00753914 -0.010963665 -0.016609054 0.013177738
000350 93 43 4e bc c6 4c 6d bc 98 71 3e bc ca ca 8d bb
       -0.012589353 -0.014483636 -0.011623763 -0.004327153
000360 38 db 81 bc 4b 4f 03 3d 64 d4 bf 3c 27 d4 27 bc
       -0.015851602 0.03205804 0.023416705 -0.010243452
000370 e2 5e 36 3c 17 cc 10 bc f0 fd c4 3c 8d 2b d8 bc
       0.01113102 -0.008837721 0.024046868 -0.026387954
000380 60 53 1e 3d f6 57 d8 bc f0 e1 eb bb a2 19 a6 3c
       0.03865373 -0.02640913 -0.0071985647 0.020275895
000390 ba ac 84 3c 03 35 08 3d 6b 38 82 bc c0 d4 08 bd
       0.016195644 0.03325368 -0.015896043 -0.03340602
0003a0 f0 dd a5 3c e0 01 44 3c 0d 0e a9 bc aa 69 c4 3c
       0.02024743 0.011963338 -0.020636583 0.023976166
0003b0 9b 10 14 3c b6 2e 72 bb 5d d2 05 bd d9 e2 01 bd
       0.009037162 -0.0036954111 -0.03267132 -0.03171048
0003c0 aa 77 01 3d e1 a6 f6 bc ef 22 d5 bc c6 b9 e4 3c
       0.03160826 -0.030108871 -0.026017634 0.027920615
0003d0 27 77 58 3b e5 0f 08 3d e4 c3 39 bc 1f 4b 83 3b
       0.0033030005 0.033218283 -0.011338208 0.004006758
0003e0 1d 44 da bb 6d 2c 09 3c 40 73 92 3c 08 03 ee bb
       -0.0066609518 0.008372408 0.017877221 -0.007263545
0003f0 8c b8 ec bc 3d 04 26 bb a0 f1 9a bc ba 3d 1f 3b
       -0.028896593 -0.0025332116 -0.018914044 0.0024298267

cnn.4.bias f4 [64]
000000 26 40 94 bc c5 02 15 3d b4 8f b1 3c af 7d b6 3c
       -0.018096995 0.036379594 0.021674968 0.022276727
000010 8f a0 60 bc cf 15 c7 bc cc b6 df 3c 6a 4c d1 bc
       -0.013710155 -0.024302391 0.027308844 -0.025549132
000020 f4 d4 24 bc 2e 14 df 3b 1f f0 08 3d 80 c6 d3 3c
       -0.010060538 0.0068078255 0.033432122 0.025851488
000030 ea 6e 98 3c d6 cc 89 bc 26 5d 55 bb ac 65 0a 3d
       0.018607575 -0.016821306 -0.0032556741 0.033788368
000040 19 dc b1 bc 92 59 a2 3c 83 e4 b6 bb 38 c2 08 3c
       -0.021711396 0.019818101 -0.00558144 0.008347087
000050 db 23 8b 3b 9f 07 0d 3d 42 58 08 bd 17 bc e4 3c
       0.0042462177 0.034431096 -0.033287294 0.02792172
000060 3b fa 07 3d 06 e9 a2 3c 34 58 19 bb 32 64 14 3d
       0.033197623 0.019886505 -0.002339852 0.036228366
000070 13 b8 23 bd 3b 38 04 3d 90 60 3c bc 55 a6 1b bd
       -0.03997047 0.032280188 -0.011497632 -0.038000423
000080 f5 bf b4 bc d8 66 92 3b bf 2b 87 3c 05 7e a7 3c
       -0.022064188 0.0044678263 0.016500352 0.020445833
000090 42 8c b1 b9 5c 03 27 3d e9 fc 65 bc 76 c9 24 3d
       -0.0003386457 0.040774688 -0.014037349 0.04023119
0000a0 d6 72 6d bc ec d9 0c bd 3f c3 9c bc 82 c3 2c 3d
       -0.014492711 -0.034387514 -0.01913607 0.04217864
0000b0 b6 3e 4a bb e7 a4 f8 3c 6d b3 1c bd 76 9d ef 3c
       -0.0030860133 0.030352069 -0.03825705 0.029249888
0000c0 02 61 0e bc 6f b5 d4 3c c8 84 de 3c b9 c9 b5 3b
       -0.008690121 0.02596542 0.027162924 0.005547729
0000d0 22 40 54 3b 5d a2 06 3d 11 d2 93 3c ab dc af ba
       0.003238686 0.032869685 0.018044503 -0.0013417205
0000e0 63 9b 91 bc 80 7b cd 3b f8 7c f5 bc 6e a5 d5 bb
       -0.01777429 0.006270826 -0.029966816 -0.006519965
0000f0 4c 2e e1 3c 0e e7 f8 bc 66 cb 0f 3d 6e a4 a7 3c
       0.027487896 -0.030383613 0.035106085 0.020464148

cnn.6.weight f4 [10, 64]
000000 ec 34 05 3d 2f a5 09 be bc 63 b2 bb e6 64 0d 3e
       0.032521173 -0.13441919 -0.005444018 0.13808021
000010 a8 ca 26 bd af eb af bd f5 1e 02 bb 1d 3a b7 3d
       -0.04072061 -0.08589875 -0.0019854878 0.08946631
000020 af 27 76 bd d3 50 d8 3d 0b 13 14 3d d2 65 00 3e
       -0.06009644 0.10562291 0.036150973 0.12538841
000030 1e 6b ae 3d 65 92 b2 3d 4c 3e cb 3d 0d 23 39 3d
       0.08516525 0.08719329 0.099239916 0.045199443
000040 3b 18 4d 3d 01 f3 98 bd 6a 0f e6 ba d9 6f 07 3d
       0.050071936 -0.07468224 -0.0017552201 0.03306565
000050 34 2a 67 bd 80 1c 5e 3b bd 5d e1 3c da fb 0b bd
       -0.056436732 0.00338915 0.027510518 -0.03417573
000060 ec ec 0e be d4 ae 59 3d 37 92 d9 bd b5 fd 61 bd
       -0.13957566 0.053145245 -0.106235914 -0.055173595
000070 a6 b3 e3 3d 7c d0 bd bd cb 1d 00 bc ee 9a 8e bd
       0.111182496 -0.09268281 -0.007819603 -0.06963144
000080 32 db ee bc 1d 6b a9 bc 48 00 a5 3d 49 0d 30 bd
       -0.029157255 -0.020680958 0.08056694 -0.04298142
000090 6a 57 d8 bc 6d 9f 8f 3c 34 5e a5 bd 50 e0 ee bd
       -0.02640887 0.017532075 -0.080746084 -0.11663878
0000a0 d1 d4 09 be 5f a2 52 3c 8e d7 81 3d 7e e3 29 3c
       -0.1346009 0.012856095 0.06339942 0.01036918
0000b0 88 fd f4 37 1b 51 9c 3c fa 09 b3 3d 3e fd 25 bd
       2.9205126e-05 0.019081643 0.08742137 -0.040524714
0000c0 c5 db 58 3d 15 f5 64 bd a1 75 09 3e f1 be d2 bd
       0.052943964 -0.05589779 0.13423778 -0.102903254
0000d0 7e e5 7b 3c 22 be df 3c 1f 9c e1 bd 48 1d 03 3e
       0.015374539 0.027312342 -0.11016106 0.12804139
0000e0 53 7b 1e bd eb 28 e2 bd 9a 2c c3 bc b1 d9 69 bd
       -0.03869183 -0.11042961 -0.023824979 -0.057092372
0000f0 2c bf ff bd a7 b0 92 3c 36 60 39 3d 55 22 9e bd
       -0.12487635 0.0179065 0.04525777 -0.07721392
000100 0d 16 db bd d5 c8 4a bd 70 ba c2 3b 82 04 dd 3d
       -0.10697565 -0.049507935 0.0059426352 0.107918754
000110 97 26 0b be a2 c0 01 3e 95 54 d4 bd a3 fd f5 bd
       -0.1358894 0.1267114 -0.10367695 -0.12011268
000120 e9 71 63 bd fb 41 83 3d 55 7d 98 bd 56 32 cd bc
       -0.055528555 0.06409069 -0.0744578 -0.025048416
000130 32 2a d5 3d 85 29 60 bd 1b 4c d2 3c 23 dc 8d bd
       0.10408439 -0.054727096 0.025671056 -0.06926753
000140 bb 60 4a 3d 8c 97 a3 3d 28 cf da bd 15 c6 7f bd
       0.049408656 0.0798789 -0.10684043 -0.062444765
000150 87 33 d3 bd 2a 82 0d 3e 70 51 e8 3d 23 18 bf 3c
       -0.103125624 0.13819185 0.11343658 0.023326939
000160 e7 3b 06 3e f1 40 d5 3d ee 4a f4 3d 24 d4 ae 3d
       0.13108788 0.10412777 0.11928354 0.08536556
000170 8e df b6 3d 28 8d a3 3c 84 4b 83 ba 4b d2 80 bc
       0.089293584 0.01996477 -0.0010017012 -0.015725276
000180 03 bb af bc 52 bc 84 3c ac 00 82 bc 6d 5b 33 3d
       -0.021451479 0.01620308 -0.015869461 0.043788362
000190 16 e4 91 bd 33 e8 84 3d b4 6c c9 bd 32 66 02 be
       -0.07123582 0.06489601 -0.098351866 -0.12734297
0001a0 09 68 f9 bd 16 e4 f5 bd 1e 81 e7 bd e8 93 00 3e
       -0.12178046 -0.120063946 -0.11303924 0.12556422
0001b0 04 12 e9 3b 5d 3a e7 3d 38 ac 1d 3e 5f 8d d5 3c
       0.0071127433 0.11290429 0.15397727 0.026068388
0001c0 b7 d1 13 be d5 38 0b be 0a 83 13 3d de 5e 5a 3d
       -0.14435469 -0.13595898 0.03601364 0.05331313
0001d0 7e 63 3c bc f2 e6 77 bd f2 d4 b7 bd b5 bb f3 3d
       -0.01149833 -0.06052298 -0.08976163 0.11901037
0001e0 f1 65 04 3e 3b 77 01 3e bc 1b ce 3d 43 86 08 be
       0.12929513 0.12643139 0.10063884 -0.13332467
0001f0 5d 02 c0 bd e9 fc da bd 2e b8 a4 bd 7b bd ef bd
       -0.09375451 -0.1069277 -0.08042942 -0.117060624
000200 79 22 a1 3d 55 bd a1 bc e1 99 00 bd 2f 04 ad bd
       0.07867903 -0.0197436 -0.03139675 -0.084480636
000210 58 1b fa 3d 1b b2 ed bd ae ab 86 bb 05 a3 a4 bd
       0.12212247 -0.116062365 -0.0041098213 -0.08038906
000220 aa f6 1c bd 0d a9 cf 3d f0 da 60 3d fc 52 c7 bd
       -0.038321175 0.10139666 0.054896295 -0.09732625
000230 dd 58 c7 bd 38 a3 46 bd 9c f6 25 3d fa d0 11 3e
       -0.09733746 -0.0484955 0.04051839 0.14239874
000240 33 81 f2 3d ce fc 19 3b 7e fd 21 3d 24 ee 62 bc
       0.11841049 0.002349663 0.03954839 -0.013850722
000250 5b eb a0 3d b3 0c 40 3d 35 8a fa bd 1c 2b cf bd
       0.078573905 0.04688711 -0.12233392 -0.10115644
000260 a4 9a 0e 3d fb bb 42 bc da e7 88 bd f9 31 89 bc
       0.034815446 -0.011885638 -0.06684847 -0.016747462
000270 cc fc aa bc 33 c2 da 3c a4 b6 8a 3d 20 55 ed bd
       -0.020872496 0.02670393 0.06773117 -0.11588502
000280 71 48 69 bc e8 57 dd bd 3e ab b1 bd 12 df 21 bd
       -0.014238463 -0.108077824 -0.0867524 -0.039519377
000290 5b 7c 0e 3b fd 9d 6c 3d ce 5b 82 bc c4 dd 37 bd
       0.0021741602 0.057767857 -0.015912917 -0.044889227
0002a0 3f 10 8c bd ad 55 e3 3d 4c 38 92 bc 28 5f 0d be
       -0.06839036 0.11100326 -0.01784911 -0.1380583
0002b0 ef e6 9f bc 2a a9 9b bd 0a 9b 87 3c 50 7c 8c 3d
       -0.019519297 -0.07600625 0.01655342 0.06859648
0002c0 0b ac 8f 3d fc 8d 97 3d d1 30 cc bc 7e e2 c0 bc
       0.070152365 0.07400128 -0.024925621 -0.0235455
0002d0 43 2d 90 bd a6 05 3b 3d 90 3a ba 3d bb ba af 3b
       -0.07039883 0.045659684 0.09093201 0.005362836
0002e0 ea 68 f2 bd 85 f1 c1 3c 38 d6 9c 3d 0d c2 9d bd
       -0.11836417 0.023674736 0.076580465 -0.07703028
0002f0 8e 4c 79 3d b8 db 81 3d 0a 97 79 3d 68 ab 08 3e
       0.060864024 0.06340736 0.060935058 0.13346636
000300 7c 02 14 bb 7a 14 37 3c 92 72 9d bc c3 d5 0a 3e
       -0.0022584489 0.011174316 -0.01921967 0.13558106
000310 5d 2b 90 bc 2c 48 14 3c 5a d5 b2 bd a1 0b d8 3b
       -0.017598802 0.00905041 -0.087321 0.006593183
000320 ce ab c1 bd 20 5a c9 3d 84 43 f1 3d 27 73 66 3d
       -0.09456597 0.09831643 0.11780456 0.05626216
000330 2f 3d a3 bc 11 d0 cc 3d 66 8f ae bd a0 8c f2 bc
       -0.019926636 0.10000623 -0.08523445 -0.02960807
000340 76 8b 84 bb 0f e3 32 3d 5e 13 15 bd 8d 9f 1a 3d
       -0.0040449454 0.04367357 -0.036395423 0.037749816
000350 7a 2d d1 bd 12 6e c8 3d 99 42 74 bd 44 7e df 3d
       -0.10213752 0.09786619 -0.059633825 0.10912755
000360 33 a4 a8 3d 99 09 f9 bd 95 d7 25 bd 32 d8 a0 bd
       0.082344435 -0.12160034 -0.0404888 -0.07853736
000370 d7 f0 c2 bd 67 2a bb 3d 8b a6 ae bd 35 f1 d0 bd
       -0.09518593 0.09138947 -0.08527859 -0.102022566
000380 dd c7 ca 3d 61 d7 64 bc 87 d8 49 3d 3e 10 1b 3d
       0.09901402 -0.013967366 0.049278762 0.037857287
000390 86 9b 3d 3d 96 6a cf 3d 9f 94 3d 3c 22 fd 9c 3c
       0.046290897 0.101277515 0.011571079 0.019163672
0003a0 61 bb fe bd 55 9f d9 3d 4c 58 af bc 10 24 51 3d
       -0.124380834 0.10626093 -0.021404408 0.051059783
0003b0 0e 81 0a 3e 65 30 40 bd 8a ec d0 3c 1a d7 d9 bc
       0.13525793 -0.046921153 0.025503416 -0.026591826
0003c0 2c 16 5c bd 70 e5 8a bd 03 69 2f bd 13 65 dd bd
       -0.053732082 -0.06782043 -0.042824756 -0.10810294
0003d0 d7 16 63 bb fb f4 f8 bd 73 73 8a 3d 5e 0b e7 bd
       -0.0034651065 -0.12156101 0.067603014 -0.11281465
0003e0 47 0d b1 3c f4 4e fb 3d f3 8e 7c 3c 0b a1 66 bd
       0.021612776 0.122709185 0.015414941 -0.056305926
0003f0 20 22 ad 3c 7b 05 86 3c 5b 1c 79 bc a5 ef 17 bd
       0.021134436 0.016360035 -0.015204514 -0.037093777

cnn.6.bias f4 [10]
000000 ca c8 81 3d 1a 67 b6 3d 80 98 8f bc 49 e1 c5 bd
       0.063371256 0.08906384 -0.017528772 -0.0966211
000010 40 e2 4f 3d 59 2d 89 3d 61 eb 6f 3d 11 a6 f8 3c
       0.05075288 0.066981025 0.058574084 0.030352624
000020 39 b5 44 3c 0e 99 ce 3d
       0.0120060975 0.100877866
