pytorch/cnn/kfold/fashion-mnist-cnn-fold-4.pt (torch, 178071 bytes, 6 tensors)

cnn.0.weight f4 [4, 1, 3, 3]
0.20024075 0.5544567 0.055935 0.23061806 0.52526975 -0.06818197 0.6209777 0.47043142
0.024071755 -0.14993073 0.0030944264 -0.2826253 -0.10499509 0.27529752 -0.00716501 0.1378364
-0.039559707 -0.09631243 -0.0072698104 0.40022445 -0.31358016 -0.14645872 0.38083994 -0.28348076
0.057272013 0.3888423 -0.30532342 0.28649896 -0.1634316 -0.07498305 -0.20389448 -0.0974468
0.065087795 0.21920548 -0.2147135 -0.048007373
00000000: e90b 4d3e e0f0 0d3f 191c 653d 2427 6c3e
00000010: 1478 063f fda2 8bbd 65f8 1e3f 63dc f03e
00000020: 2132 c53c 7187 19be dccb 4a3b 43b4 90be
00000030: aa07 d7bd ccf3 8c3e 76c8 eabb fc24 0d3e
00000040: 5c09 22bd 743f c5bd 9737 eebb 38ea cc3e
00000050: 948d a0be 46f9 15be 74fd c23e 6424 91be
00000060: 0f96 6a3d 5716 c73e 5a53 9cbe feaf 923e
00000070: 9d5a 27be b790 99bd b7c9 50be 3092 c7bd
00000080: c04c 853d 6777 603e dbdd 5bbe 61a3 44bd

cnn.0.bias f4 [4]
0.35766613 -0.29914632 -0.066723235 -0.32146853
00000000: 0420 b73e b529 99be 31a6 88bd 8697 a4be

cnn.4.weight f4 [64, 676]
0.02245763 -0.023536537 -0.018910885 -0.012444975 0.03862199 0.05036006 0.01579138 0.034712236
-0.0103932815 0.019362107 -0.009089175 0.007846478 -0.021853823 -0.0011808809 -0.027301112 0.013409379
0.009896896 0.00045480896 -0.017330881 -0.007537959 0.033280883 0.0035779926 0.008839087 -0.035122108
0.03782791 -0.012423855 -0.0054111457 0.035381887 0.024966978 0.018062955 -0.019183828 0.0013669198
-0.0011830304 -0.0022382676 0.014328109 0.013556122 0.022046044 0.027513769 0.03568202 -0.01686211
-0.02924224 0.02885609 0.002870652 0.010548219 0.010611996 0.014737236 0.04288668 0.042509973
0.0059499713 0.022423733 -0.030368503 -0.004724151 -0.0064984052 0.015935991 0.017828846 -0.015753517
-0.0060925456 -0.012858716 0.03428766 0.03812687 -0.008448931 -0.02402352 0.004530629 -0.014604552
-0.025437968 0.013976005 0.009467863 -0.033180907 -0.047579113 -0.012540943 0.03843783 0.007853696
0.0031416295 0.03461394 0.009934003 -0.028272253 -0.037989385 0.004609471 -0.031991746 -0.02960976
-0.05304196 -0.030849047 0.0012164868 0.03813317 -0.024685778 -0.02015494 0.029151926 -0.04327251
-0.027118424 0.015637793 -0.0097083375 -0.033287827 0.014613685 0.0011653729 -0.006835466 0.030628938
0.036291234 -0.015064607 0.012307273 0.036386557 0.020514816 -0.0150342975 -0.005168793 -0.042532098
-0.016329652 -0.039510053 0.003964405 -0.057264883 0.026101066 0.009652357 -0.004386964 0.03627957
0.014741122 0.019883974 -0.044791695 -0.055859353 0.017453343 0.0026473638 0.011156474 -0.055196512
0.0039266767 0.0280882 0.0062715476 -0.015765758 0.021980815 0.040131897 -0.017109774 0.024850441
0.005540094 0.024303645 0.032266594 -0.010576165 -0.039435748 -0.03438174 -0.0023788274 0.058112755
-0.020597491 -0.012822979 0.035823185 0.011499518 -0.038661454 -0.03161005 0.023351826 -0.028545493
-0.02735761 -0.04541051 0.029128412 -0.0057279877 0.0019458802 -0.0012903992 0.049611453 0.03292119
0.010996964 0.0011841755 0.0005107228 0.027182557 0.014047415 -0.03999467 0.008511442 -0.03294717
-0.014435791 0.01242365 0.04043255 0.03617682 0.039272718 -0.022309143 0.03163621 0.018440206
-0.015122139 -0.00048154593 0.014200997 0.009962317 0.018171031 0.023747414 0.0074080825 0.010251587
0.028645411 0.0119688 -0.003051475 -0.0015865548 0.013105249 0.03297187 -0.020436123 -0.002432708
0.02979939 0.016298007 -0.022242822 0.036068875 0.026288526 -0.02579933 0.0055858595 -0.004990301
-0.01819898 0.03826625 0.00016641832 0.0096850805 -0.03328005 0.011279423 -0.034323588 -0.028353862
-0.028716382 0.01629834 0.03095671 0.020144707 -0.002867354 -0.022975309 -0.028134862 0.031810656
-0.026798084 -0.011852067 0.02284194 0.034157712 -0.023757027 0.030530805 -0.016661895 0.0164541
-0.022855198 -0.02763716 0.006515555 0.01797019 -0.022531958 0.028793784 0.020846559 0.02165949
0.024265122 0.037152436 -0.012418527 0.028427882 0.029764248 0.034093518 -0.02448495 0.032097187
-0.019580653 -0.027953137 0.029545212 0.025959957 -0.037002917 -0.020934524 0.03371573 0.007035049
-0.030847317 0.031451393 0.036345806 -0.0027778216 -0.02398912 -0.005399453 -0.014312274 -0.038101755
0.015639275 0.031837024 -0.017806713 -0.0069301324 0.03623482 0.026929144 0.035128858 0.016115846
00000000: 10f9 b73c b2cf c0bc 00eb 9abc 02e6 4bbc
00000010: 1732 1e3d 5a46 4e3d ed5c 813c 6b2e 0e3d
00000020: 9548 2abc 489d 9e3c c3ea 14bc 848e 003c
00000030: ca06 b3bc cac7 9aba 95a6 dfbc 03b3 5b3c
00000040: 9726 223c 6d73 ee39 7ef9 8dbc fc00 f7bb
00000050: 8951 083d c17c 6a3b d1d1 103c 33dc 0fbd
00000060: 70f1 1a3d 6d8d 4bbc fb4f b1bb 99ec 103d
00000070: 8c87 cc3c c3f8 933c 6727 9dbc 382a b33a
00000080: ea0f 9bba e6af 12bb 72c0 6a3c 7f1a 5e3c
00000090: e899 b43c 8e64 e13c 4f27 123d 6822 8abc
000000a0: 6c8d efbc 9b63 ec3c 8c21 3c3b 70d2 2c3c
000000b0: f0dd 2d3c 7374 713c f2a9 2f3d f01e 2e3d
000000c0: faf7 c23b fab1 b73c 5ec7 f8bc 0dcd 9abb
000000d0: 93f0 d4bb 328c 823c cd0d 923c 850d 81bc
000000e0: faa3 c7bb 5dad 52bc 3871 0c3d ec2a 1c3d
000000f0: 636d 0abc f9cc c4bc ac75 943b ee47 6fbc
00000100: 4963 d0bc 9dfb 643c 181f 1b3c b4e8 07bd
00000110: 51e2 42bd 8778 4dbc fc70 1d3d caac 003c
00000120: cce3 4d3b 59c7 0d3d 3bc2 223c 369b e7bc
00000130: c29a 1bbd 0c0b 973b c709 03bd 2b90 f2bc
00000140: 8742 59bd 24b7 fcbc 8672 9f3a 8731 1c3d
00000150: d439 cabc f91b a5bc 05d0 ee3c 843e 31bd
00000160: 7527 debc d41a 803c b80f 1fbc d158 08bd
00000170: 3d6e 6f3c 6dbf 983a 0bfc dfbb 8ae9 fa3c
00000180: 1ea6 143d 8bd1 76bc 72a4 493c 120a 153d
00000190: b00e a83c 6a52 76bc fa5e a9bb 2336 2ebd
000001a0: c3c5 85bc 4bd5 21bd d7e7 813b 958e 6abd
000001b0: e7d1 d53c eb24 1e3c 85c0 8fbb e399 143d
000001c0: bf84 713c b7e3 a23c 7f77 37bd c7cc 64bd
000001d0: 50fa 8e3c 657f 2d3b a5c9 363c bd15 62bd
000001e0: 5aab 803b 3a19 e63c 8e81 cd3b 3127 81bc
000001f0: 1c11 b43c 5861 243d cc29 8cbc 2793 cb3c
00000200: ad89 b53b 7018 c73c fa29 043d a747 2dbc
00000210: 6187 21bd ded3 0cbd 1ae6 1bbb a407 6e3d
00000220: 12bc a8bc 7917 52bc 55bb 123d 7968 3c3c
00000230: 795b 1ebd 8a79 01bd 544c bf3c 3dd8 e9bc
00000240: 111d e0bc 5f00 3abd b59e ee3c d8b1 bbbb
00000250: e80c ff3a 9d22 a9ba 6135 4b3d 5fd8 063d
00000260: 9c2c 343c 5636 9b3a 07e2 053a f4ad de3c
00000270: 2127 663c 73d1 23bd 9373 0b3c 9df3 06bd
00000280: 1984 6cbc 918c 4b3c 9a9c 253d 252e 143d
00000290: 6edc 203d aac1 b6bc f894 013d ea0f 973c
000002a0: d9c2 77bc 0078 fcb9 4cab 683c fc38 233c
000002b0: 6adb 943c f089 c23c 80bf f23b 46f6 273c
000002c0: c8a9 ea3c c918 443c 41fb 47bb f2f3 cfba
000002d0: 66b7 563c 830d 073d a869 a7bc 116e 1fbb
000002e0: da1d f43c 6683 853c 9436 b6bc f5bc 133d
000002f0: 095b d73c 1e59 d3bc 9609 b73b ae85 a3bb
00000300: 0716 95bc 12bd 1c3d 9480 2e39 2cae 1e3c
00000310: a950 08bd 54cd 383c e496 0cbd 5c46 e8bc
00000320: 9e3e ebbc 1984 853c ed98 fd3c 8306 a53c
00000330: 38ea 3bbb b736 bcbc 157b e6bc e44b 023d
00000340: a887 dbbc 2c2f 42bc 051f bb3c f5e8 0b3d
00000350: 199e c2bc bd1b fa3c 877e 88bc c0ca 863c
00000360: d33a bbbc 5367 e2bc 7080 d53b 3836 933c
00000370: f194 b8bc f1e0 eb3c 67c6 aa3c 3e6f b13c
00000380: a6c7 c63c 272d 183d 1477 4bbc 97e1 e83c
00000390: 27d4 f33c a5a5 0b3d a994 c8bc 5778 033d
000003a0: 9b67 a0bc fafd e4bc cd08 f23c faa9 d43c
000003b0: 5f90 17bd e17e abbc 8119 0a3d 4586 e63b
000003c0: 83b3 fcbc 2dd3 003d 57df 143d 1d0c 36bb
000003d0: d584 c4bc e5ed b0bb 077e 6abc 9610 1cbd
000003e0: f01d 803c 8a67 023d 62df 91bc 2a16 e3bb
000003f0: f66a 143d 829a dc3c 47e3 0f3d 6105 843c

cnn.4.bias f4 [64]
0.024391066 0.016961161 -0.0029264546 -0.0021369879 -0.02571952 0.0021356223 -0.018249385 -0.026863692
-0.021105777 0.0037555406 0.028781865 0.04058945 0.0059790732 0.0020527113 0.030867487 -0.026079776
0.010282598 0.023057017 -0.017066162 0.003908252 0.0028204161 -4.785127e-05 -0.0007832605 -0.0051175356
0.018353738 -0.02226339 -0.019954102 -0.039864365 0.018302733 0.04127679 -0.022490278 -0.020322543
-0.030906191 0.011394159 -0.036727004 0.008153673 -0.012890003 0.0024545554 -0.01711501 0.042777207
-0.03423652 0.021618797 0.030734109 0.023722146 0.0077034505 0.002009521 0.024359552 -0.010219421
-0.020255143 0.021096429 -0.027872128 0.020759962 0.02626475 -0.017457237 0.036452 0.02724457
0.020452933 0.017369842 0.044166014 -0.036344368 -0.0004051554 0.007753999 -0.030935198 0.021967128
00000000: c6cf c73c 22f2 8a3c c3c9 3fbb b50c 0cbb
00000010: beb1 d2bc ccf5 0b3b bc7f 95bc 3f11 dcbc
00000020: 06e6 acbc 841f 763b f2c7 eb3c 2041 263d
00000030: 1aec c33b c886 063b d0dd fc3c 41a5 d5bc
00000040: 5878 283c 12e2 bc3c 56ce 8bbc cb10 803b
00000050: bbd6 383b e9b3 48b8 b953 4dba 00b1 a7bb
00000060: 945a 963c b661 b6bc c976 a3bc d148 23bd
00000070: 9def 953c da11 293d 883d b8bc 767b a6bc
00000080: fb2e fdbc 91ae 3a3c 0e6f 16bd fc96 053c
00000090: 9730 53bc 9bdc 203b c734 8cbc 2737 2f3d
000000a0: 983b 0cbd e719 b13c 19c6 fb3c f254 c23c
000000b0: 3a6d fc3b 2bb2 033b af8d c73c 5c6f 27bc
000000c0: 1dee a5bc 6bd2 ac3c 1754 e4bc cc10 aa3c
000000d0: 2c29 d73c 7b02 8fbc b14e 153d 0130 df3c
000000e0: e98c a73c 334b 8e3c 6ce7 343d d5dd 14bd
000000f0: 0a6b d4b9 4215 fe3b d06b fdbc 68f4 b33c

cnn.6.weight f4 [10, 64]
0.08666201 0.10847807 0.0016182015 -0.09211066 0.10466553 -0.093441434 -0.003400513 0.118942045
-0.05249538 -0.03206617 0.013477868 0.13713814 -0.05470954 0.097278535 0.11155959 -0.124351576
-0.056264732 0.09060372 -0.017644795 0.043280493 -0.005923904 0.02392221 0.0440445 -0.04234662
0.12216821 0.02165123 0.004700888 0.079820305 0.104503624 -0.011878436 0.0022528563 -0.040793188
-0.0446054 -0.042395603 0.11884813 0.03138395 -0.04026318 -0.05364208 0.15065856 0.107443765
0.021503946 0.06861839 0.03378486 0.13133356 -0.05984276 0.103985466 0.089154184 0.12483451
0.027939554 -0.10324281 0.05219019 0.140238 0.024158744 -0.036822136 -0.14852422 -0.114233315
-0.13121843 0.05749095 -0.0039259875 0.112239905 -0.042641394 -0.13771388 0.10481662 0.12387441
0.18086305 -0.03805337 0.09608837 0.019591609 -0.09782393 0.045159332 -0.16196781 -0.013020824
-0.12840621 -0.18594915 0.094980136 -0.009777254 0.09667066 -0.09046562 0.08018451 0.06586707
0.010342865 0.07786684 -0.116600856 0.12449533 -0.123433724 -0.0684521 -0.053718727 -0.15364486
-0.11643019 0.055920035 0.040811572 0.056889966 -0.12931868 -0.15070453 0.083246656 0.04377194
0.043190103 -0.11172797 0.021915767 0.062099434 0.04869093 -0.1105479 -0.108624324 0.07699394
-0.071960375 0.11450801 0.036114287 0.14971295 0.010697465 -0.03935426 -0.13323714 -0.088540964
-0.077940896 0.17761816 0.09057782 -0.052599017 0.06265017 -0.04650011 -0.000655426 0.109808356
-0.005878962 0.10746801 -0.10550091 -0.016086267 -0.024312438 0.010938873 -0.06992652 -0.09082699
0.04440519 0.11737421 0.1019079 -0.09917069 -0.014911473 -0.098014124 -0.01617149 0.0741786
-0.029654322 0.044873647 -0.03155813 -0.1401321 -0.042199623 0.074181564 -0.04943794 0.022205628
0.07365929 0.089390635 0.017033156 0.13013582 0.155138 -0.014004692 -0.024260167 -0.09668067
-0.042075817 0.09828593 -0.05423017 -0.0018623882 -0.1376488 0.1434326 -0.05130366 -0.04721665
-0.12657037 -0.049567703 0.15333095 -0.04476691 0.0090301875 0.0516003 -0.08006767 0.026658688
-0.12184311 0.05429144 0.047611475 -0.012606092 -0.098182 -0.107498966 0.02425183 0.07263042
0.0172489 0.061587747 0.01524097 -0.062250156 -0.028370757 0.117336445 0.081589706 0.06290408
-0.09191557 -0.08639403 -0.14333227 0.09345866 0.11600952 0.00836242 0.07595397 -0.0009766496
0.10855363 -0.08596906 0.06836034 -0.082076855 0.06994639 0.016025543 -0.01816262 0.116583936
0.02553205 0.005780536 0.12120655 0.067389004 -0.026091583 0.06839943 -0.04434145 0.05083396
0.004207782 0.07824183 -0.08723798 -0.06543629 0.0010581366 -0.004014626 -0.1130913 -0.15227254
0.03351441 0.04436695 0.009715129 -0.1242432 0.10710113 -0.13462426 0.029804345 0.09152979
0.025332697 -0.081462994 -0.16256624 -0.08361017 -0.077187784 0.046802294 0.11569184 0.1443724
0.10557985 -0.09702023 0.014975879 -0.0054433253 0.11334264 0.012215906 -0.048830837 0.036032487
0.08972473 0.14930311 0.08257969 0.13961968 0.11985349 -0.03561853 0.116244406 -0.06183441
-0.05811003 0.07613494 -0.032540288 -0.10336778 0.0004811211 -0.15046264 -0.08880877 -0.06655813
00000000: da7b b13d c029 de3d d519 d43a 84a4 bcbd
00000010: e25a d63d 395e bfbd 24db 5ebb e397 f33d
00000020: 6505 57bd d157 03bd 47d2 5c3c f16d 0c3e
00000030: 1c17 60bd f839 c73d 5b79 e43d 0aac febd
00000040: d975 66bd 718e b93d d18b 90bc e346 313d
00000050: 4f1d c2bb 83f8 c33c 0168 343d a673 2dbd
00000060: 5433 fa3d ec5d b13c e809 9a3b d478 a33d
00000070: ff05 d63d c69d 42bc a8a4 133b c216 27bd
00000080: 27b4 36bd 03a7 2dbd a666 f33d 758c 003d
00000090: 01eb 24bd ccb7 5bbd 3d46 1a3e 7a0b dc3d
000000a0: 0b29 b03c cc87 8c3d fe61 0a3d 4e7c 063e
000000b0: af1d 75bd 55f6 d43d 7896 b63d 3ca9 ff3d
000000c0: 7ee1 e43c f770 d3bd 61c5 553d 8d9a 0f3e
000000d0: 8fe8 c53c cfd2 16bd bc16 18be 28f3 e9bd
000000e0: 205e 06be a17b 6b3d 92a5 80bb 09de e53d
000000f0: bea8 2ebd de04 0dbe 19aa d63d deb1 fd3d
00000100: 2a34 393e dadd 1bbd fbc9 c43d 957e a03c
00000110: ea57 c8bd fef8 383d e4da 25be 4b55 55bc
00000120: eb7c 03be 7469 3ebe f284 c23d c730 20bc
00000130: 44fb c53d 0a46 b9bd c737 a43d 50e5 863d
00000140: 1f75 293c a678 9f3d 6ecc eebd 68f7 fe3d
00000150: d2ca fcbd 9d30 8cbd 2b08 5cbd 1455 1dbe
00000160: f472 eebd 680c 653d 092a 273d 7405 693d
00000170: 1e6c 04be 4a52 1abe 397d aa3d 354a 333d
00000180: 1be8 303d a2d1 e4bd b288 b33c fa5b 7e3d
00000190: 2470 473d f066 e2bd 6e76 debd 00af 9d3d
000001a0: f65f 93bd 2d83 ea3d 93ec 133d 5a4e 193e
000001b0: 6c44 2f3c ef31 21bd 516f 08be f754 b5bd
000001c0: 7a9f 9fbd 89e1 353e dd80 b93d 1172 57bd
000001d0: bb4e 803d e676 3ebd e5d0 2bba 34e3 e03d
000001e0: 4fa4 c0bb 3018 dc3d dc10 d8bd 59c7 83bc
000001f0: e12a c7bc f538 333c a335 8fbd 8003 babd
00000200: 37e2 353d e461 f03d 17b5 d03d 011a cbbd
00000210: 404f 74bc a1bb c8bd 137a 84bc f3ea 973d
00000220: 9fed f2bc 6ecd 373d 1943 01bd ca7e 0fbe
00000230: 83d9 2cbd 81ec 973d 707f 4abd 94e8 b53c
00000240: afda 963d 7012 b73d 1e89 8b3c 5342 053e
00000250: 7fdc 1e3e f073 65bc 42bd c6bc 8400 c6bd
00000260: b157 2cbd 224a c93d 7420 5ebd 611b f4ba
00000270: cff3 0cbe ffdf 123e c923 52bd 3f66 41bd
00000280: aa9b 01be 8107 4bbd ca02 1d3e 825d 37bd
00000290: 5af3 133c d65a 533d 85fa a3bd 5263 da3c
000002a0: e188 f9bd b360 5e3d 4004 433d c889 4ebc
000002b0: a513 c9bd 6b28 dcbd c6ab c63c 42bf 943d
000002c0: 914d 8d3c 6f43 7c3d 43b5 793c 05fa 7ebd
000002d0: ca69 e8bc 174e f03d 8118 a73d dbd3 803d
000002e0: 3b3e bcbd 5aef b0bd b2c5 12be 4167 bf3d
000002f0: 6696 ed3d 8802 093c c18d 9b3d ec02 80ba
00000300: 5e51 de3d 8c10 b0bd 8200 8c3d e917 a8bd
00000310: 0e40 8f3d 0048 833c c6c9 94bc 8fc3 ee3d
00000320: 9728 d13c a76a bd3b 243b f83d 3f03 8a3d
00000330: 04be d5bc 0015 8c3d 619f 35bd 4537 503d
00000340: 6fe1 893b 413d a03d d3a9 b2bd 7603 86bd
00000350: 2cb1 8a3a 208d 83bb 699c e7bd 55ed 1bbe
00000360: 6846 093d 1eba 353d 342c 1f3c 3873 febd
00000370: d657 db3d f1da 09be 3e28 f43c f873 bb3d
00000380: 8486 cf3c 12d6 a6bd c477 26be cf3b abbd
00000390: a114 9ebd c3b3 3f3d d8ef ec3d 5cd6 133e
000003a0: 403a d83d 8bb2 c6bd 645d 753c ec5d b2bb
000003b0: 3020 e83d 3925 483c d802 48bd cd96 133d
000003c0: 99c1 b73d eae2 183e 8a1f a93d 76f8 0e3e
000003d0: bf75 f53d bce4 11bd 8c11 ee3d 1446 7dbd
000003e0: c804 6ebd a3ec 9b3d f748 05bd 7db2 d3bd
000003f0: fb3e fc39 e112 1abe 5fe1 b5bd a14f 88bd

cnn.6.bias f4 [10]
-0.09247507 0.108373985 -0.13581099 -0.07958252 0.10267738 0.03500417 -0.12819412 0.06086197
-0.026991664 -0.013481823
00000000: 9263 bdbd 2ef3 dd3d 0912 0bbe 29fc a2bd
00000010: 8548 d23d 8860 0f3d 5245 03be 674a 793d
00000020: 9f1d ddbc dde2 5cbc
