pytorch/cnn/kfold/fashion-mnist-cnn-fold-3.pt (torch, 178071 bytes, 6 tensors)

cnn.0.weight f4 [4, 1, 3, 3]
000000 02 32 70 3e e0 12 86 3e 7f c0 84 3e 6e 31 30 3c
       0.23456576 0.26186275 0.25928113 0.010753972
000010 29 66 27 3d b4 18 a4 3e 67 3f a5 3e 79 63 c9 3e
       0.040868912 0.32050097 0.32274935 0.39333704
000020 79 98 45 3d 9b 43 01 3f ca 86 f7 3e f5 45 0d 3f
       0.048241112 0.5049378 0.48345023 0.5518487
000030 61 0a 21 3f af 77 4b 3c c6 46 0d 3e d2 fc 22 3f
       0.6290646 0.0124186715 0.13796529 0.63667023
000040 27 78 ee 3d 2b 7f 01 3f 6a bd 7a be 2d 70 44 be
       0.11644011 0.5058467 -0.24486318 -0.19183417
000050 4d 27 7e be 50 d1 a6 3e e5 d2 9e be 8e fa f8 3d
       -0.2481968 0.32581568 -0.31020275 0.121571645
000060 9a 39 76 3d 94 cd 04 be cb 95 8a be ae e0 82 bd
       0.060113527 -0.12969047 -0.27067408 -0.063905105
000070 06 c3 8c be ba 5a a5 be 32 19 76 3e df 36 8a be
       -0.2749254 -0.3229578 0.24033049 -0.26994988
000080 fe 14 a3 3d 6a 33 48 be eb df ca 3d c3 43 2d be
       0.07962988 -0.19550863 0.0990599 -0.1692038

cnn.0.bias f4 [4]
000000 57 5b c4 3c 53 2a ee 3c 57 1e 1d 3f 07 75 30 be
       0.023969335 0.029072916 0.6137442 -0.17232142

cnn.4.weight f4 [64, 676]
000000 d8 8a e0 bc 3a 6a a0 bb 0d 74 aa 3c 61 9c 08 bd
       -0.027409956 -0.0048954757 0.02080729 -0.03335226
000010 aa 60 ce bb 6e e5 55 3c d2 ed c8 bc f9 93 f5 bc
       -0.0062981443 0.013055189 -0.024527464 -0.029977785
000020 6d e9 ab 3c 01 53 0c bd 87 ca 87 3b 04 42 66 3a
       0.02098533 -0.034258846 0.004144016 0.0008783641
000030 ae 4c ac bc 6b 1d f6 3c f0 18 12 bd 2b d6 04 bc
       -0.021032657 0.030043324 -0.035668314 -0.008107702
000040 b3 3b 20 3c fa 9a aa 3c 7f 5d bc bc a0 c3 36 3c
       0.009779858 0.020825852 -0.022993801 0.011155039
000050 73 94 01 3d 73 9e 0d 3d 56 f9 7c 3c 9d 98 95 3c
       0.031635713 0.034574937 0.015440306 0.018261248
000060 53 90 a3 bc d2 bb 34 bc 77 b0 f6 3c 5b 97 14 3d
       -0.01996628 -0.011031108 0.030113442 0.036277156
000070 5f 66 3c 3c 50 b7 dc 3c d2 ad 1b 3d 02 15 d5 3c
       0.011499017 0.026942879 0.038007565 0.026010994
000080 d2 43 02 3d 9c a0 3a 3c db 83 2d bc 7e 7d df bc
       0.03180296 0.011390831 -0.010590519 -0.027281519
000090 2b 81 44 3c f2 a5 c9 3c c0 80 15 bb 52 2d de 3c
       0.011993687 0.024615262 -0.0022812337 0.02712122
0000a0 e4 77 be 3c 21 02 d6 3c 07 0f df bc 81 43 e2 3c
       0.023250528 0.026124062 -0.027228845 0.027620079
0000b0 0a 29 9e bb 6e 9e 10 3c a0 24 9d 3c f2 7b 7e bc
       -0.0048266696 0.008826835 0.019182503 -0.015532481
0000c0 9a 9f 36 3c 31 9a 66 3c ca 6a ca 3c 65 fa 2c bc
       0.01114645 0.014074848 0.024709124 -0.010557746
0000d0 99 27 3c bc 7a 9d 43 3b 3a ea e7 3c 93 d1 47 bc
       -0.01148405 0.0029848502 0.02830993 -0.0121959625
0000e0 56 53 19 3d 6b 4e 35 3c 90 90 e6 bc 69 ed fb bc
       0.03743299 0.01106606 -0.028145105 -0.030752854
0000f0 94 07 05 bd f3 f1 1d bd ac 64 ea 3c ef a6 e0 3c
       -0.03247793 -0.03856082 0.028612457 0.02742335
000100 c0 a5 67 bc d7 75 ee 3c 6e a9 f5 3c f2 81 74 3c
       -0.014138639 0.029108925 0.029988017 0.0149235595
000110 95 c7 34 bc 4b 2f 6b 3c 40 97 56 3c ab 17 ba bc
       -0.011033912 0.014354537 0.013097584 -0.022716364
000120 fd e1 61 3c fa 96 66 bc f9 13 c6 3b a3 fd f5 bc
       0.01378679 -0.014074082 0.0060448614 -0.03002817
000130 81 ac 47 bc 13 62 94 bc fe 62 ad 3b 00 81 a2 3c
       -0.012187124 -0.018113172 0.005291342 0.019836903
000140 0d 65 2c 3d 9e 1d 99 3a f6 62 b7 3c 43 81 ec bb
       0.042088557 0.00116818 0.022386055 -0.0072175576
000150 96 05 5f bb 18 07 09 3d 45 36 84 3c 45 5c ec 3b
       -0.003403043 0.03345403 0.016139159 0.007213148
000160 93 45 a0 bc 45 0f e1 bc 67 70 e1 3c ff ed 85 39
       -0.019564426 -0.027473101 0.027519418 0.00025545058
000170 d2 05 1e 3c d9 08 b8 3c 0e 9e e5 3c 95 f0 88 bc
       0.009644942 0.022465156 0.028029468 -0.016716281
000180 f9 cb 65 bc 28 94 9b bb 6a 32 0b 3d 42 22 1b ba
       -0.014025682 -0.004747886 0.033983625 -0.00059178856
000190 4d bd 64 bc 4d be 8b 3b 18 c2 80 3a d6 3c cf 3b
       -0.013961148 0.004264629 0.000982347 0.006324391
0001a0 0f bc 38 3c ec c3 ea bc 47 55 d7 3a c9 29 e0 bc
       0.011275305 -0.028657876 0.0016428613 -0.027363675
0001b0 ad 50 bf 3c 4f 83 c5 bc 18 f7 71 3c df de 0a bd
       0.023353899 -0.024110464 0.014768384 -0.033903953
0001c0 88 0b b4 3c f4 ea cc 3c c7 59 28 3c 8e 97 30 bc
       0.021978155 0.025014378 0.010275311 -0.010778321
0001d0 a6 82 c7 bc 52 ff 3f bc 78 ce 2a 3c 1c 24 84 bc
       -0.02435429 -0.011718588 0.010425203 -0.0161305
0001e0 c7 e7 8e 3a b2 5c 0e 3d e8 b5 9c ba 64 40 45 bc
       0.0010902815 0.03475637 -0.0011956068 -0.012039278
0001f0 60 7b 02 3d 70 24 26 3b 12 74 81 3c 07 4a 9e bb
       0.03185594 0.0025351308 0.015802417 -0.004830602
000200 5a 58 a8 3c 34 df 4e 3c 0a a2 77 bc 89 a8 9f 3c
       0.020549942 0.012626458 -0.015114317 0.019489544
000210 10 81 c4 bc b5 03 c3 bb 47 ed 57 3c 65 42 88 3c
       -0.023987323 -0.0059513696 0.01317913 0.016633222
000220 0c cb eb 3b f9 16 13 3d a2 5e 21 bc 4a 13 da 3c
       0.007195836 0.03591058 -0.009849222 0.026620526
000230 3d a0 62 bb a2 8e b3 3c f2 25 32 3c 76 d1 a2 bb
       -0.0034580373 0.021918599 0.010873305 -0.0049688173
000240 27 2a 11 bd 7d 01 dc 3c 9b bf 67 3c 65 ac 0f 3d
       -0.03544059 0.026856178 0.014144803 0.035076518
000250 28 43 a7 bc 6e 67 6b ba 56 6c 16 bd 43 11 72 3c
       -0.020417765 -0.0008979951 -0.03672441 0.014774623
000260 15 62 6a bc 55 a2 76 bb 49 da 98 bb c2 b8 1d 3d
       -0.014305611 -0.0037633379 -0.0046646935 0.038506277
000270 a9 30 5a bb de 69 74 bc 9d 7b de bc 7c 0c 7d 3c
       -0.0033293164 -0.014917819 -0.027158553 0.015444871
000280 cb 34 1b 3d b6 a8 0f bd b5 78 0d 3d 2c c5 18 3d
       0.037892144 -0.035073005 0.034538943 0.037297413
000290 de 8a 4e 3c 2c 80 5a 3c b0 c5 ef bc 05 6c 83 3c
       0.012606351 0.013336223 -0.02926907 0.016042719
0002a0 29 9d 79 bc e6 30 fc bb ac 64 11 3c 1c f1 07 bd
       -0.015235224 -0.007696259 0.0088741 -0.033188924
0002b0 10 13 99 3b 99 28 aa 3c 67 77 ba bc 92 8e 55 bc
       0.004671462 0.020771312 -0.022762014 -0.01303448
0002c0 84 38 d8 3c 1e 1e ff 3b 0d f6 86 bc af aa bf bb
       0.026394136 0.0077855727 -0.016474748 -0.0058492045
0002d0 c9 c1 09 3d 9d 2a 58 3b aa 28 df bc bb 13 f9 3b
       0.033632074 0.0032984384 -0.02724107 0.007601229
0002e0 f0 36 7f bb 43 3e 75 bc 6e 88 67 3c 2f 79 0c bc
       -0.0038942657 -0.014968458 0.0141316485 -0.008573814
0002f0 28 7f 97 3b 45 c7 24 bd 3f 51 2f bc ff dc 15 bd
       0.0046233125 -0.0402291 -0.010700523 -0.03658771
000300 2f 21 90 bc 5d 8c 05 3d af 59 96 3b a1 87 aa 3b
       -0.017593948 0.032604564 0.004588328 0.0052041565
000310 4d 25 22 3d 2c e4 a0 bc 61 a6 cd bc 25 4f 8d 3c
       0.039586354 -0.01964005 -0.02510375 0.017249653
000320 e6 eb 01 bd 31 36 90 bb 6b 1f 8a 3b ca 7e d0 3a
       -0.03171911 -0.0044009914 0.004215171 0.0015906927
000330 f9 46 0c bd 7c de 91 b9 70 e8 fb 3c c7 cc b3 3c
       -0.034247372 -0.0002782232 0.030750483 0.021948231
000340 d6 ee 90 3b 42 b3 f7 bc 8b de 1e 3d 2d db 4c 3c
       0.0044230027 -0.030236844 0.038786452 0.012503427
000350 9f 96 27 bc 86 f5 d5 bc ef c0 13 3d 12 ca f2 bb
       -0.010228782 -0.026118051 0.036072668 -0.0074093426
000360 13 5e 5d bc 27 8a 38 bb b7 ae 00 bd a7 f2 0a 3d
       -0.013511199 -0.0028158517 -0.03141662 0.033922818
000370 90 d3 50 3b 85 28 79 3c 6b 45 22 bc 89 73 d6 3c
       0.0031864382 0.0152074145 -0.009904246 0.026178138
000380 e0 ee eb 3b f2 9d 69 bc 68 46 0c ba 7b e2 09 3c
       0.007200107 -0.0142588485 -0.00053510675 0.008415814
000390 ad 1e 15 bd de 96 16 3c 50 b1 c6 bb 86 6c d2 3c
       -0.036406208 0.009191243 -0.0060636178 0.025686514
0003a0 b8 4d 9c 3b 62 1e 0f 3d 16 ee 05 bd 38 05 25 bc
       0.004770007 0.034941085 -0.03269776 -0.010072045
0003b0 23 40 14 3d 63 cc 00 bd fb f7 2a 3c b0 73 3e bc
       0.036193978 -0.03144492 0.0104351 -0.011624262
0003c0 80 f1 a7 bc 3e f1 79 bc 69 33 26 bd 3d 3f ec bc
       -0.020500898 -0.0152552705 -0.040576372 -0.028838748
0003d0 56 47 bf bc eb a6 ea 3c b1 94 9c 3c f1 1a 0b 3d
       -0.023349445 0.028644046 0.01911387 0.03396124
0003e0 5a ea ae 3c 88 e5 56 3c 09 a4 d0 bc c3 6c c2 3c
       0.021351982 0.013116248 -0.025468843 0.023733502
0003f0 99 81 19 3d c8 61 37 3b b8 73 10 bd 5a 1a 89 bc
       0.03747711 0.0027981866 -0.035266608 -0.016736198

cnn.4.bias f4 [64]
000000 2e 04 52 bc 9f 47 ca 3b 21 2b 9a bc f1 79 7f bc
       -0.012818379 0.0061730887 -0.018819394 -0.015593038
000010 1f 83 4b bc 71 97 80 3c d8 41 d6 3c 9c a9 11 3d
       -0.012421398 0.015697213 0.026154444 0.035562143
000020 bb 20 12 3d fd 1b 73 bc 64 55 e8 bc d5 a0 b5 bc
       0.035675745 -0.014838216 -0.02836103 -0.022171417
000030 af 65 86 bc 53 23 f8 bc b3 dc 19 3c 7e 72 66 3c
       -0.016405908 -0.030290281 0.009390998 0.014065383
000040 ee a8 88 3c 6b 2c 45 3d d3 23 c4 3c f6 8d f6 3b
       0.016682114 0.048138063 0.023942864 0.0075242473
000050 2c 93 32 3c b3 3a b4 bc f1 e5 2e bc 9a b2 cd bb
       0.010899346 -0.022000646 -0.0106749395 -0.0062773945
000060 22 83 b8 bc 0c e9 98 bc 98 ea e0 3c 36 1c 26 3d
       -0.022523466 -0.018665813 0.027455613 0.040554248
000070 91 fb 49 3c 5f 8d 02 3d 98 1f 5a bc e8 f7 76 3c
       0.0123280445 0.031873103 -0.013313197 0.015073754
000080 49 5d 07 bd 1a cb 9f 3c 16 04 71 bc 4c aa a1 3b
       -0.033047948 0.019506026 -0.014710447 0.004933631
000090 83 6d 57 3b 2d 2c 0a 3d ef bd a6 3c f3 ad d9 3c
       0.003287167 0.033733536 0.02035424 0.026572203
0000a0 a0 67 22 bc 68 aa 33 3d 06 7e 5e 3d 8e f2 20 3d
       -0.009912401 0.043863684 0.054319404 0.03929382
0000b0 73 fe eb 3b 2e 2e e0 3b e9 27 08 3c 67 0c 23 3d
       0.0072019636 0.0068414425 0.008310297 0.03980675
0000c0 5f d3 bb 3c 8d fb 00 3c 8e e8 20 bd 49 9d d8 bb
       0.022927938 0.007872474 -0.03928428 -0.0066105467
0000d0 75 77 d4 3c f8 71 fa bc ef f0 20 bc 90 44 fb 3c
       0.025935868 -0.030571923 -0.009823068 0.030672342
0000e0 16 a2 11 bd df cc 19 bb d6 9f 01 3d f6 c0 5a 3c
       -0.035554968 -0.002346806 0.031646572 0.01335167
0000f0 4b 58 25 3d 79 8b b4 3c f4 a1 f8 3c fd be ad 3b
       0.040367406 0.022039162 0.030350663 0.0053023086

cnn.6.weight f4 [10, 64]
000000 7b d6 57 bc 90 c8 2f 3e b2 45 d8 bd 39 d2 9d 3c
       -0.013173695 0.17166352 -0.10560168 0.019265281
000010 16 7d 90 bc 57 e1 aa bd f7 52 cc 3d ff 6e 04 3d
       -0.01763777 -0.083437614 0.09976762 0.032332417
000020 82 f2 db 3d 2d d0 c5 bd 01 f9 e4 3c fa cb 42 3e
       0.10739614 -0.09658847 0.027950766 0.19023123
000030 52 ce a4 3c 2f cf 9f 3b cb e8 4a 3d 10 ed f0 bd
       0.020117912 0.004876993 0.049538415 -0.11763966
000040 13 dd dc 3d 58 02 55 bc c3 d5 bc bd 28 26 ef bc
       0.10784354 -0.013001047 -0.09220459 -0.029192999
000050 99 df fa bd 5b d3 42 3e 58 9b 24 3c 1a 6c f9 3c
       -0.12249679 0.19025938 0.010046802 0.030447055
000060 44 1a 15 bc 56 54 fc bd af 8a f5 bc 58 1a b2 3c
       -0.0091005005 -0.12320773 -0.029973356 0.021741077
000070 fe 56 12 bd 66 51 d0 bd ee f2 cb 3d 5a af 35 3d
       -0.035727493 -0.101717755 0.099584445 0.04435668
000080 36 38 df 3a 95 d6 05 3e 8f 23 16 3e e9 b9 c3 3d
       0.0017030302 0.13070138 0.14662002 0.09556944
000090 1c a8 06 be a1 e2 4f 3d f9 93 25 3e 38 e3 63 3d
       -0.13150066 0.05075324 0.16169728 0.055636615
0000a0 af d7 25 be 39 c3 83 bd cf df e4 bd b3 75 45 3d
       -0.16195558 -0.0643372 -0.111755006 0.04820795
0000b0 7b ce 48 bb f4 e4 05 bd 30 b5 21 be 10 30 fc 3d
       -0.003064065 -0.03268905 -0.15791774 0.12313855
0000c0 0c b3 0f 3e 9f ce a3 bd 8c 8b 40 bd 9d d0 c6 3d
       0.14033145 -0.07998394 -0.047008082 0.097077586
0000d0 55 b0 c5 bb b5 6e 06 be 32 95 63 bb 99 05 95 3d
       -0.0060329833 -0.13128169 -0.0034726379 0.07276458
0000e0 e9 7a 32 bd 47 50 d4 3d 48 c9 13 be ec 4e 27 3d
       -0.043574248 0.10366874 -0.14432251 0.04084675
0000f0 ea 25 d9 3d 4d 4a 80 bd 60 e1 b3 3d 84 52 da 3d
       0.10602935 -0.06264172 0.08783221 0.1066027
000100 44 8d da 3d 63 ec 27 3d 99 b8 08 bc 07 21 36 be
       0.106714755 0.04099692 -0.008344793 -0.17786036
000110 33 75 30 3e 01 09 87 3c d0 d6 47 bc 90 e6 aa bd
       0.17232208 0.016483786 -0.012197211 -0.083447576
000120 42 16 5a bd fc 63 08 3e 24 50 a5 bc f6 87 5c be
       -0.053243883 0.13319391 -0.020179816 -0.2153624
000130 58 90 b0 bb cd 3c f8 3d b7 ca dc 3c c0 af da bd
       -0.005388301 0.12120972 0.02695213 -0.10678053
000140 58 4f f9 3c 32 76 3c 3d 5a db 81 3c 5d 62 2f bd
       0.030433342 0.046011157 0.015851665 -0.042818416
000150 9b 87 d1 bd 37 94 82 bd 37 59 1b 3c cd 96 42 3e
       -0.10230943 -0.06375926 0.00948172 0.19002838
000160 09 fa 18 3d 65 ae 06 3d 6f 5f 66 bc ab 60 80 3d
       0.037347827 0.03288116 -0.014060839 0.06268438
000170 f8 78 cc 3c cd ce 94 3d 7a 99 06 be 5c 7d 3f 3c
       0.024960026 0.072660066 -0.13144484 0.011687603
000180 73 b3 62 bd 2c d2 f4 bc 02 b9 3c 3e 06 7e 98 bc
       -0.055346917 -0.029885374 0.1842995 -0.01861478
000190 92 d0 4c 3d 9e 71 84 3c 8f 63 15 3e a9 00 3e bc
       0.050003596 0.016167458 0.1458876 -0.011596837
0001a0 24 e9 01 3e db f7 f8 3d 55 03 e2 bc 52 57 de 3d
       0.12686592 0.1215665 -0.02758948 0.10856499
0001b0 38 1e d6 3d 0e 26 d9 3c 2d 5c 2f be d1 aa 22 3d
       0.104549825 0.026507404 -0.17125006 0.039713684
0001c0 39 68 b7 bc ad 63 94 bc fe 37 d2 3c 99 ff 48 bd
       -0.022388564 -0.018113935 0.025661465 -0.049071882
0001d0 e1 5a 51 3c fd f3 ec bd bb 10 cd 3d 16 9c 92 3d
       0.012778015 -0.115699746 0.10012957 0.07158677
0001e0 94 7d d9 bd 80 5a 14 3b 65 ba f3 bd 89 c1 a3 bd
       -0.10619655 0.002263695 -0.11900786 -0.07995898
0001f0 2e 8b 16 3e 5c 21 e7 3c b1 d8 30 3e ef 01 bd 3d
       0.1470153 0.02821415 0.17270161 0.092288844
000200 6b b4 a6 3d 6e 2c 19 3d 10 33 ff 3c cf b7 81 3d
       0.08139881 0.037395887 0.031152278 0.06333887
000210 09 a0 e3 bd 41 47 9a 3d a0 fc 05 be c8 82 c8 3d
       -0.11114509 0.07533122 -0.1308465 0.097905695
000220 7c 9e d0 3d e1 41 19 3e ed d9 30 3d ac ee 21 bc
       0.101864785 0.14966537 0.04317658 -0.009883564
000230 61 f9 31 bd 1f e8 f3 bd 64 00 05 be 96 6e 22 be
       -0.043450717 -0.11909508 -0.1298843 -0.15862498
000240 c0 31 7b bd 93 4c 55 bd 07 dd fa 3d c0 d9 6a 3d
       -0.061326742 -0.05207498 0.12249189 0.05733657
000250 8f 07 57 3b f0 da 9e bb 5c f1 b2 3d 4c 77 f6 3d
       0.0032810902 -0.0048478767 0.08737442 0.12034473
000260 62 17 e5 3d bd 51 b3 bc 3c 16 a0 bd 7c 5c 15 bc
       0.111861005 -0.021889562 -0.07816741 -0.009116288
000270 48 b4 21 3a 77 64 a3 bd 8d 5b 88 3d 64 17 c2 bd
       0.00061685266 -0.079781465 0.06658087 -0.09477118
000280 d9 65 40 3e a8 15 13 3e e4 2d ea bd 8c 50 94 3d
       0.18788852 0.1436373 -0.11434534 0.072419256
000290 57 36 a9 bd 98 4c 2d 3d 27 a0 23 3c 64 1d 78 bd
       -0.08262318 0.042309374 0.009986914 -0.060574904
0002a0 bd 9d 0f be f7 da a1 bd f8 80 83 3d f0 3b 4b bd
       -0.14025016 -0.07903092 0.06421083 -0.049617708
0002b0 e8 5e 5d bd 8c 2f 52 bd a1 fc c2 bc f4 41 b3 3d
       -0.054045588 -0.051314875 -0.023802103 0.08752814
0002c0 c7 60 de bc 34 70 41 bd 68 14 a7 3d 42 a7 96 3d
       -0.027145756 -0.047226146 0.08158189 0.07356121
0002d0 bb 8f 5a 3d 82 3e 15 3e a8 f5 1c bd 66 ae 8b bd
       0.05335973 0.14574626 -0.038320214 -0.06820373
0002e0 97 48 fc 3d 5b 7e c6 bd ec f0 fd 3b 57 c2 cd bd
       0.12318533 -0.09692069 0.0077496674 -0.10046833
0002f0 52 db 95 3c 83 e5 ba 3d d6 ec 16 3d 70 d8 92 bd
       0.018293057 0.09125807 0.036846958 -0.071701884
000300 0f 38 8c bc de 9e fc 3d 4e a3 be bd ef c5 24 bd
       -0.017116575 0.12334989 -0.09308492 -0.040227827
000310 00 35 19 3e 5d 43 c2 3d 2f 44 84 bd c7 77 f6 bd
       0.14961624 0.09485505 -0.064583175 -0.120345645
000320 52 0d 40 3d c1 d9 94 3d b7 f8 f2 3d 9b 53 1d 3d
       0.046887703 0.07268096 0.11863845 0.03840981
000330 1e 7d b0 3d 2a 26 09 bb 2a 5d 11 3e 88 64 b9 3d
       0.08617614 -0.0020927289 0.14195696 0.09052378
000340 c4 e9 65 3c 6d 9e bc 3d 34 ab 00 3d 3b 5d aa bc
       0.014032785 0.09209905 0.031413272 -0.020796409
000350 0f 67 c9 3d 80 3b b2 3c 8d 7c b1 3c c3 93 4e 3d
       0.0983411 0.021756887 0.021665836 0.050433885
000360 c4 bf a6 3d ba e6 f8 bc fa 83 b8 bd d8 53 c2 3d
       0.08142045 -0.030383456 -0.090095475 0.09488648
000370 25 f0 20 3d 4c 28 e4 bd ff 58 3e 3c 15 59 5d bd
       0.03929152 -0.111404985 0.011617898 -0.054040033
000380 3e bd 0e be 4c 19 33 bc 1f 5b f2 ba d3 d0 d7 39
       -0.13939378 -0.010931324 -0.0018490291 0.00041163582
000390 fe fc 91 3d d2 48 8d bd 0d b3 f9 3d 10 f3 e9 bd
       0.071283326 -0.06898655 0.12192354 -0.114233136
0003a0 76 8d a5 3d 85 d8 e2 3d fc 66 1c be cb ee 3f 3d
       0.08083622 0.11076454 -0.1527366 0.04685859
0003b0 38 9c d0 3d 0d f6 11 3e a0 03 e0 bc f6 60 ae 3c
       0.10186046 0.14254017 -0.027345479 0.021286469
0003c0 7c 3b 7f bc c8 a3 1a bc 38 f6 67 bd 9b 75 5e 3d
       -0.015578147 -0.009438463 -0.056631297 0.054311376
0003d0 40 c8 e0 3c 12 2c 4d be d5 0f c9 bd 00 c3 cc 3c
       0.027439237 -0.20036343 -0.09817473 0.024995327
0003e0 1f 55 51 3d 5a 3c 5b 3d 09 5a 44 be b5 cf 65 bd
       0.05110657 0.053524353 -0.1917497 -0.056106288
0003f0 f6 3b 91 bd 15 96 d8 bd cd 41 a6 3d 0f 31 6d 3b
       -0.07091515 -0.10575501 0.08118019 0.0036192571

cnn.6.bias f4 [10]
000000 c7 7b ea bd 18 96 b1 bd 80 07 84 3d 1f c0 f3 3c
       -0.1144939 -0.08671206 0.06446743 0.029754696
000010 57 51 6c 3c a1 a5 ce 3c bc 3c 83 bd 31 c0 de 3d
       0.01442369 0.025225462 -0.064080685 0.10876501
000020 15 f3 63 3d f9 d6 84 bd
       0.055651743 -0.06486315
