pytorch/cnn/kfold/fashion-mnist-cnn-fold-1.pt (torch, 178071 bytes, 6 tensors)

cnn.0.weight f4 [4, 1, 3, 3]
000000 bf 48 b7 3e c7 33 81 3e b0 13 50 be d5 85 36 be
       0.35797688 0.25234815 -0.2032001 -0.1782449
000010 6b 90 c2 3e ee 32 d8 3e a6 24 62 be cd 9d 16 be
       0.38000807 0.42226356 -0.22084293 -0.14708634
000020 05 64 a3 3e a6 35 a3 bd 20 86 98 be e3 22 1c bd
       0.31912246 -0.07969217 -0.2978983 -0.038119208
000030 6e 6c 88 3e 67 04 96 be 57 9e 1a bc 93 3f 97 3e
       0.26645225 -0.29300234 -0.009437165 0.2954069
000040 c2 7a 9b be b7 d6 41 be 28 00 49 be ae 56 09 3e
       -0.30367094 -0.18929563 -0.19628966 0.13411972
000050 e8 67 3f be a6 e1 cf bd 7f 43 78 be 89 03 c1 3e
       -0.18691981 -0.10150461 -0.24244498 0.3769801
000060 81 57 47 bc ce ad 12 be a2 ab b7 3e f1 29 36 3e
       -0.012166859 -0.14324114 0.35873133 0.17789437
000070 fe 3f 1f 3f 80 63 31 3e dc 72 f6 3e 43 4d d9 3e
       0.6220702 0.17323112 0.48134506 0.4244176
000080 57 b1 22 3f f8 06 2a 3f e5 7a c6 3e 37 dc 28 3f
       0.6355185 0.66416883 0.38765636 0.6596102

cnn.0.bias f4 [4]
000000 5a 70 f1 3e 81 42 76 be 7f 94 e0 3b a4 8c f1 39
       0.4715603 -0.24048807 0.0068536396 0.00046071887

cnn.4.weight f4 [64, 676]
000000 70 3f ab bc 95 3f b0 3c eb cd a1 3b cf 2d 00 bd
       -0.020904273 0.021514693 0.0049378774 -0.031293686
000010 7d 0b 13 bd 57 df d5 3c 9d 1c 0e bd 73 67 0b bd
       -0.035899628 0.026107473 -0.034695257 -0.034034204
000020 c5 d9 cd ba 60 87 4f bc e6 de 4c bc 97 9c 43 bc
       -0.0015705159 -0.012666553 -0.012504315 -0.011939189
000030 a9 1e c9 bc 4e cb 07 bd 09 ed dc bc b3 1d e5 bc
       -0.024550753 -0.03315287 -0.026968496 -0.027968263
000040 fe 41 30 3c 09 a5 08 bd f0 1f bc bc 0f 62 00 bd
       0.010757921 -0.033360515 -0.022964448 -0.031343516
000050 83 d1 e7 3c ee d7 48 bc dc 8b ab bc 84 83 19 3d
       0.028298145 -0.012258513 -0.020940714 0.03747894
000060 21 db b2 3c e1 e6 22 bb 5c 0c 0f bd 61 dc ee bc
       0.021833004 -0.0024856853 -0.034923896 -0.02915782
000070 76 3d e6 ba c3 be ff bc f4 e5 1a 3c cb 6a a4 3c
       -0.0017565924 -0.031218892 0.009454239 0.020070454
000080 99 05 c8 bc 9e 26 14 bd 18 72 ab bc 29 93 e0 bc
       -0.024416732 -0.03616964 -0.020928428 -0.027413921
000090 b8 38 f0 3c 0f de d9 3c fa c8 5f bc 2d f1 e8 bb
       0.02932392 0.026595144 -0.013658756 -0.0071088285
0000a0 74 72 1a bd 88 91 0d bd 38 6e cb bc c8 30 e3 3c
       -0.037706807 -0.034562618 -0.02483283 0.027733222
0000b0 ae 10 e8 3c cc e8 8b 3c 72 24 a5 3c cc 75 f6 bc
       0.028328266 0.01707878 0.02015898 -0.030085467
0000c0 b9 1a c8 bc 66 c9 be bc bb 18 1f bc 41 3b 6e bc
       -0.024426805 -0.023289394 -0.009710486 -0.014540494
0000d0 c7 f3 be 3c 6b 64 09 3d 52 11 ea bc 33 e7 ad 3c
       0.023309601 0.03354303 -0.028572712 0.021228408
0000e0 98 44 e4 3c 01 c2 27 bc 15 a5 a0 bc 2f 6f 91 bc
       0.02786474 -0.010239125 -0.019609967 -0.017753212
0000f0 92 c1 55 bc 70 35 a0 bb f0 68 f6 3c b5 c8 98 bc
       -0.013046639 -0.0048891827 0.030079335 -0.018650392
000100 5c 7e 15 bd cc ce 02 bd 4e ee 11 3c 80 d8 2b 3c
       -0.03649746 -0.031935498 0.008906914 0.010488629
000110 59 da 1f 3c 4c 7a d0 3c 82 df c3 bc fa 61 3b bb
       0.009756648 0.02544894 -0.023910288 -0.0028592334
000120 10 dd 8e 3c bf 79 0e bb 56 c2 57 ba 62 4f 17 3d
       0.017439395 -0.0021740047 -0.00082305574 0.03694094
000130 61 2e c8 bc 82 58 b0 3c 82 a4 d0 3c 3c af cb bc
       -0.024436178 0.021526579 0.025469068 -0.024863832
000140 17 a4 bd bc 98 6c 09 bd 78 e5 2a bc d6 dc 88 3b
       -0.023149533 -0.03355083 -0.010430686 0.0041767163
000150 89 1a 0e 3d dc c6 a3 3b 0c 1a 9f bb 15 e6 72 bc
       0.034693275 0.004998071 -0.0048554 -0.014825364
000160 e8 95 06 bb e1 78 02 3d a0 69 01 bc f8 43 1d 3d
       -0.0020536128 0.03185356 -0.007898718 0.0383949
000170 cc 80 9c bb f0 6b f1 bc 5b 74 9b 3c 61 4e 58 ba
       -0.004776096 -0.029470414 0.018976381 -0.00082514255
000180 6c db f9 3b 6f d9 fa 3c 1c 33 1e 3c 67 92 fd 3c
       0.007625034 0.030621259 0.00965574 0.0309536
000190 bb 29 82 3c 91 67 00 bd 13 d5 88 3c bc 59 08 bd
       0.01588904 -0.03134877 0.016703164 -0.033288702
0001a0 7e bb e4 bc 0c 92 d2 bc 4f 62 73 3c 3d 9d 84 bc
       -0.027921434 -0.025704406 0.014854982 -0.016188258
0001b0 a0 75 3b 39 87 42 dd bc 91 90 2a 3c 01 3d d7 bc
       0.00017877528 -0.027009262 0.010410444 -0.026274206
0001c0 e0 5a 10 bd d6 4e 8d bb 5d 16 06 bd 8a 61 db 3c
       -0.035242915 -0.0043123765 -0.03273617 0.026779909
0001d0 29 67 53 bc 34 bb 09 bb bb e8 e1 3c 20 c3 b4 bc
       -0.012903013 -0.0021016123 0.027576795 -0.0220657
0001e0 4f e5 2b 3c 70 94 01 bd 45 17 e7 bb 0d f0 19 3c
       0.010491683 -0.0316357 -0.0070523345 0.0093956115
0001f0 2c 78 0a bc 74 06 a5 3c 26 40 8c 3c 6d 7b b8 3b
       -0.008451503 0.020144679 0.017120432 0.005629948
000200 89 bf 58 3c 47 44 69 3b 34 35 62 3c 63 5f 16 bd
       0.013229259 0.0035593675 0.01380663 -0.03671206
000210 a3 0c ce 3c 15 84 90 3c af d4 06 3d 4e b0 ce bc
       0.02515251 0.017641107 0.032917675 -0.025230553
000220 b5 39 a6 bc ec 54 04 bd 45 dd d9 3c cd 46 f6 bc
       -0.020291189 -0.03230755 0.026594767 -0.030063057
000230 d8 7f 8c 3c 63 8b 61 bc 28 93 bb 3a a2 b4 2c 3c
       0.017150804 -0.013766143 0.0014310824 0.010541113
000240 f8 bb fa b9 c0 10 4a 3b 50 8a 8a bc 39 a7 95 bc
       -0.00047823763 0.0030832738 -0.016911656 -0.018268215
000250 51 33 13 3d 52 dd bd bc 9f 6e cf 3c c3 6e ac 3c
       0.03593761 -0.023176823 0.025321303 0.021048909
000260 3f 11 0f bd 9c be 2e bc e4 fc a9 3c 8c ac 1d bc
       -0.034928557 -0.010665562 0.02075047 -0.009623658
000270 55 f8 1f 39 95 db 17 3d 33 90 da bc 0f 3b 09 3d
       0.00015255933 0.037074644 -0.026680088 0.03350359
000280 56 64 d0 3b 9a 4c 02 3d c3 d3 05 3d 6f e0 4a bb
       0.006359617 0.031811334 0.032672655 -0.0030956527
000290 6f 8c 97 ba da 8a a9 3c fb a7 13 3d c1 47 aa bb
       -0.0011562238 0.020696092 0.03604887 -0.005196542
0002a0 f9 86 64 bb a0 37 9c bb 70 fb 08 3c ff cd 13 3d
       -0.003487049 -0.004767373 0.008360729 0.036085125
0002b0 e4 92 23 3c 20 f3 ba 3b 80 b4 7b ba 57 d3 19 3d
       0.009983752 0.0057052523 -0.0009601787 0.037555065
0002c0 60 18 f2 3b 8d fa 02 bd 22 c9 ed 3c 57 8f 06 3d
       0.0073881596 -0.031977225 0.029026572 0.032851543
0002d0 9b 29 9e bc a8 97 a5 bc 18 21 60 3c 50 54 c8 3b
       -0.019306948 -0.020213917 0.013679765 0.0061135665
0002e0 e0 9a bc bc 2d ef c2 bc c0 f5 0f 3c 38 e5 ea 3b
       -0.023023069 -0.023795689 0.008786619 0.0071684383
0002f0 a0 90 91 3b 59 58 1d 3d a8 4f a7 3c 20 42 91 bc
       0.0044422895 0.038414333 0.020423725 -0.017731726
000300 86 a7 6c bc 83 1d bd bc 22 a4 fb 3c c0 0b 7c 3b
       -0.014444238 -0.023085361 0.030717913 0.0038459152
000310 20 bf 59 3c 8a 2c 5c bc 0c a2 7f 3c c4 d4 14 bd
       0.013290197 -0.013438353 0.0156026 -0.03633572
000320 07 a4 1c bd 52 a6 d8 bc 81 94 17 3d cd 2e 05 3d
       -0.038242366 -0.026446495 0.03700686 0.032515336
000330 06 c3 e1 3c ba 2d fa 3c 44 bd 08 3c ea 11 a3 bc
       0.027558815 0.030539382 0.008345906 -0.019906003
000340 99 e8 0e bd 76 0f d3 bc c2 33 e6 3c 9a 2c e9 3c
       -0.03488979 -0.025764208 0.028100852 0.02846365
000350 b0 43 c3 3c 80 c7 a0 ba 7c b9 74 3c 4a 90 8d 3c
       0.023835987 -0.0012266487 0.014936801 0.017280716
000360 b5 f1 03 bd d6 84 e2 3c 70 8c 15 3b c3 5b ae bc
       -0.03221293 0.027651232 0.0022819303 -0.02128399
000370 a7 95 13 3d ed 0e 06 3d e9 86 0d 3d e0 90 46 bb
       0.03603139 0.032729078 0.03455249 -0.0030298755
000380 c0 07 93 3c dd 52 06 bd b4 db f8 bc d0 dc 8c 3b
       0.017948031 -0.03279387 -0.0303782 0.004298784
000390 9c 02 92 3c 11 e1 29 ba 8c 00 82 3c b0 01 5f 3c
       0.01782351 -0.0006480376 0.015869401 0.013611242
0003a0 88 48 8b bb 30 b3 ba 3b a0 9b 9f bb 80 b8 bd 3c
       -0.0042505898 0.0056976303 -0.004870847 0.023159266
0003b0 3c 70 2a 3c 36 3c 8b 3c e2 e6 a9 3c 3a 06 ef 3c
       0.010402735 0.016996484 0.020739976 0.029177774
0003c0 14 5b b3 bc a0 bd 16 bb b7 bd d0 bc 86 61 09 3d
       -0.021894015 -0.002300121 -0.025481088 0.03354027
0003d0 98 57 19 bc f0 bb 8b 3b 02 bb 8a 3c a6 7e cf bc
       -0.009359263 0.0042643473 0.016934875 -0.025328945
0003e0 78 8b cc 3b 5e 4a a5 3c 78 c7 31 3c 28 a9 fe bc
       0.006242212 0.020177063 0.01085078 -0.03108652
0003f0 80 21 9b 3a d4 39 46 bc 5d 0e 01 3d 4e 5a 0f bd
       0.0011835545 -0.012098748 0.03150784 -0.03499823

cnn.4.bias f4 [64]
000000 c8 35 d2 bc 2a c1 00 bd 26 5e 1e 3d d6 e5 0f 3d
       -0.02566041 -0.031434216 0.038664006 0.035131298
000010 61 51 da bb a2 5a a2 3b d2 87 01 3d 5e ce 9a bc
       -0.006662533 0.004954652 0.03162367 -0.018897232
000020 a6 fe 06 3d 64 61 b7 bc 3e cc e0 3c 4e 62 09 bd
       0.032957695 -0.022385307 0.02744114 -0.033541016
000030 c8 04 2c 3d 25 3a 9e bc 4f a2 e4 bc e7 be c9 bc
       0.041996747 -0.019314835 -0.027909426 -0.024627162
000040 a2 ba be bc ab b8 aa bb 02 e0 38 3d bc b6 87 bc
       -0.023282353 -0.0052100024 0.045135505 -0.016566627
000050 fb d1 56 bc cf 04 71 ba 3c d9 18 bd 20 50 9a bc
       -0.013111587 -0.0009194137 -0.037316546 -0.018837035
000060 88 c5 0e bd f8 78 86 3d fa 23 01 bd 01 66 6f 3c
       -0.03485635 0.06566042 -0.03152845 0.014611722
000070 1b bd ed bc 5a e7 5d bb f9 c1 29 3d 77 f2 f2 3a
       -0.029020837 -0.003385982 0.041444752 0.0018535395
000080 3c a9 b5 bc 49 9a 91 bc c3 a7 a5 3c 24 4f b1 bc
       -0.022175424 -0.017773764 0.020221597 -0.021644183
000090 81 dc 15 3d e2 99 cd bc b0 49 07 3c 76 b7 12 bd
       0.036587242 -0.025097791 0.008257315 -0.035819493
0000a0 6d 31 30 3c 87 78 84 bc a6 af 20 bc 50 8e cc bc
       0.0107539715 -0.016170753 -0.009807503 -0.024970204
0000b0 f1 47 03 bd e0 ef e0 3c d3 2e d9 3c db 2a 33 3c
       -0.03205103 0.027458131 0.026511585 0.0109355105
0000c0 dc ed b7 3c 7b 4f 06 3c 7f ea 6a 3b 3d 9e 7b bc
       0.022452287 0.008197661 0.0035845337 -0.015357551
0000d0 82 72 a3 3c f4 7f 33 bc 53 ab 28 bc f6 73 8d 3c
       0.019952063 -0.010955799 -0.010294753 0.017267209
0000e0 bb 3d 24 3c cd 9f de 3b 26 3a 6a 3c c6 bc 9d 3c
       0.010024483 0.006793952 0.01429609 0.019255053
0000f0 bc 48 6d 3c f6 bf 79 bc 79 0b e5 3c 09 a5 a9 bc
       0.014482673 -0.015243521 0.027959572 -0.020708578

cnn.6.weight f4 [10, 64]
000000 53 cb 0f bd 78 29 d5 3c 54 d9 d1 3b dd e3 c9 bd
       -0.035106014 0.02602075 0.0064040814 -0.098579146
000010 d9 f8 bc bd 67 0e 14 be 9b 71 16 bc 63 c6 19 be
       -0.092271514 -0.14458619 -0.009182359 -0.15017085
000020 68 61 d7 3d f9 48 d7 3d 04 07 fc 3c fc 26 d6 3d
       0.10516626 0.10511965 0.030765064 0.104566544
000030 7c fe 25 3d 17 3f c5 bd c0 e0 96 3d 18 e2 f0 bd
       0.0405259 -0.09631174 0.073670864 -0.11761874
000040 08 2c e1 bc 09 8f 35 be b2 34 e5 3d b3 85 de bd
       -0.027486816 -0.17730345 0.111916915 -0.10865345
000050 5f 9e b1 bd 33 4d 41 3c c1 90 a6 3d dd b4 ea bb
       -0.08672785 0.011798191 0.08133078 -0.007162674
000060 9c e1 01 3d e1 9a 74 3d c5 5d c1 3c 7d 20 d9 bd
       0.0317093 0.059718017 0.023604283 -0.106019
000070 65 c9 c4 3c cd 9c 8b bd 00 ea 4c 3e 1c c2 58 bc
       0.024021814 -0.06817017 0.20011139 -0.013229873
000080 6b 88 50 3d a1 1a 83 bd 5c f7 22 bd 57 42 8c 3d
       0.05091135 -0.064015634 -0.03978668 0.06848591
000090 53 66 b3 bd 38 37 20 bd fb 31 c0 3d 11 5b 7b bd
       -0.08759751 -0.03911516 0.09384533 -0.061366145
0000a0 23 9e 1f be e9 9b 8e 3c ad 6b ab bc 21 29 b5 bd
       -0.15587668 0.017408328 -0.020925367 -0.08845735
0000b0 f1 6d 1c 3e 83 89 6a bd 2b 1c dc bd 46 07 bd 3b
       0.15276314 -0.057260048 -0.1074756 0.0057686893
0000c0 6d 8e 2b 3e cb 89 a6 3d fc 55 85 3d a5 73 0b 3e
       0.1675355 0.08131751 0.06510541 0.13618334
0000d0 98 4e 2a 3e 8c 3a e4 3b 31 74 26 bd 41 b7 89 bd
       0.16631544 0.006964987 -0.040638153 -0.06724406
0000e0 ae 9a 93 bd b6 51 99 3a b0 cc 13 3d 39 a4 2e 3d
       -0.07207237 0.0011697325 0.036083877 0.042637084
0000f0 24 0a 37 be 28 b9 9a bd 05 a1 9a 3d 30 85 b2 3c
       -0.17874962 -0.07554847 0.07550243 0.021792024
000100 fd 5f 55 3d c7 69 a3 3c 96 d7 15 3e f7 c6 02 3d
       0.052093495 0.0199479 0.14633021 0.03192803
000110 82 63 5c bd 6b c2 ad bc 8c 7a f7 bd 51 bd 19 be
       -0.053805836 -0.02121087 -0.12083921 -0.15013625
000120 ef 43 f2 bc 47 a0 da bc 8e ed fa bd fb 48 f2 3d
       -0.029573409 -0.026687754 -0.12252341 0.11830326
000130 89 0a 5e bd fe 8b 43 bd c4 49 f2 bd 9d ea e1 bb
       -0.054209266 -0.04774093 -0.11830476 -0.006894423
000140 c8 2e 1a 3e 36 0f 22 ba fa c2 17 3d 35 24 84 bd
       0.15056908 -0.0006182076 0.03705118 -0.064522184
000150 11 10 bd 3c e7 1d ec bb 41 0f ba bd e5 70 19 bc
       0.02307895 -0.007205713 -0.09084941 -0.009365295
000160 20 95 d7 bd 3f 0e 55 3e e6 6e 9b bd 5a bd 0b bd
       -0.1052649 0.20806216 -0.075895116 -0.034116127
000170 6a 08 50 bb df 24 c8 3d 1a 29 2e 3e 97 45 94 bd
       -0.0031743296 0.097726576 0.17007867 -0.07239836
000180 b4 b9 c0 bd 8c 71 d6 3c af 99 11 bd e8 68 4d 3c
       -0.0941042 0.02617719 -0.035546955 0.012537219
000190 03 96 39 bc 0d c6 ad bd 1e cd 4f bd 2a ac 83 bd
       -0.0113272695 -0.08485041 -0.050732724 -0.06429322
0001a0 50 59 25 be 7b 7d 1e 3e 61 ab 92 bd 1d 17 38 bc
       -0.16147351 0.15477555 -0.07161594 -0.011235979
0001b0 77 4b 9a bd ec cf 47 3e f1 4a 1c be cb 4e 00 39
       -0.07533925 0.1951291 -0.15262963 0.00012236384
0001c0 4f 66 ff 3d 9a b1 e8 3d ae 1a 7b bd c8 81 77 be
       0.12470686 0.11362 -0.06130474 -0.24170601
0001d0 40 14 33 3e 0d 15 16 3d ba 1c 3d 3e 89 a7 a4 3d
       0.17488194 0.03664117 0.1846799 0.08039767
0001e0 b1 d1 1e 3d 1f 43 9c bd 5f 54 10 be 3c 94 2a 3e
       0.038774196 -0.0762999 -0.14094685 0.1665811
0001f0 ad 27 65 be 72 c8 c8 3d 92 f4 07 be ca 67 d7 bd
       -0.22378416 0.09803857 -0.1327689 -0.10517843
000200 fb fe 65 3d 35 1a c2 bd 39 ba 00 3e 1d 87 8f bd
       0.05615137 -0.09477655 0.12571038 -0.07008193
000210 32 9e d8 ba 03 06 f3 bd 0c dc 10 3d 40 90 b9 3d
       -0.0016526638 -0.11866381 0.035366103 0.09060717
000220 c4 16 44 bd 58 ad 8b 3d 38 66 0a ba 03 c3 fe bd
       -0.047873273 0.06820172 -0.0005279514 -0.12439539
000230 be 27 39 3e 29 9f cf 3d 6a 75 9d 3d a0 72 a4 bd
       0.18081567 0.10137779 0.076884106 -0.080296755
000240 8c 07 ad 3d 82 aa ef 3d 6f ea 43 bd 16 02 d6 bd
       0.08448705 0.11702444 -0.047830995 -0.104496166
000250 63 c5 86 3b b4 1d e0 bd 78 3f 1a 3d d9 a1 5c 3c
       0.004112886 -0.109431654 0.037658185 0.013466322
000260 2b 50 cd bd 57 19 46 be fe 78 f3 bd d5 a9 f8 bc
       -0.100250565 -0.19345604 -0.11888312 -0.03035442
000270 b8 b3 04 bd 8e 9a e6 3d 28 8e c6 bd 85 77 06 3d
       -0.032397956 0.11259948 -0.09695083 0.032828826
000280 2b b8 2a bc a3 49 6b 3d 5f de 1a bd f3 78 a6 bd
       -0.010419886 0.057443272 -0.037809726 -0.08128538
000290 01 89 b7 bb 0f 2e 03 be 50 4c 49 bd f3 d7 57 3d
       -0.005601049 -0.12810539 -0.049145043 0.05269618
0002a0 a4 b0 c0 3c a7 68 8b bd d8 b7 6b bd 1c 26 03 bd
       0.023521729 -0.0680707 -0.057548374 -0.032018766
0002b0 b9 ea 4e bd db d6 dd 3d 75 c1 4f be 19 8f 81 3d
       -0.050516818 0.10831996 -0.20288642 0.06326122
0002c0 03 d3 ea bd 48 b3 09 3e ed 1e d7 3d dc 95 d7 3d
       -0.114660285 0.13447297 0.105039455 0.1052663
0002d0 6e 8e 07 3e 6f 3f 9d bd 9f 16 fd 3a 86 18 61 bd
       0.13237926 -0.076781146 0.001930911 -0.054955028
0002e0 3e 38 78 3d d7 c8 02 3e 98 ab 50 bd be 79 3e 3d
       0.06060051 0.12771927 -0.050944895 0.04650282
0002f0 b8 1f 8a bd 96 df 1a 3d a5 8e 36 bd ff f7 a7 3d
       -0.06744331 0.037810884 -0.04456963 0.082015984
000300 69 ab 75 bc eb ff f1 3d 52 61 1b 3e 78 43 c3 3d
       -0.014994481 0.118163906 0.15173844 0.09534353
000310 94 9e 04 3d 13 dc 20 3e cf d1 fe 3c 6d a0 16 be
       0.032377794 0.15708952 0.031105904 -0.14709635
000320 61 1e 27 3e c8 6b 43 3d 68 54 c2 3c 3a e1 05 3d
       0.16320182 0.04771021 0.023721889 0.032685496
000330 66 bf e9 bd 1e b8 fd 3d 7c ad fe bd eb cb fd bd
       -0.114134595 0.12388633 -0.12435433 -0.1239241
000340 4a ce b4 bd 6b 7b 07 3e fc e3 82 bd bc 54 75 3d
       -0.08828409 0.13230674 -0.06391141 0.059895262
000350 7d 49 7f bd f6 af b7 3d 7c 24 9b 3d 32 c4 86 bd
       -0.062325943 0.08969109 0.07575318 -0.0658039
000360 6a 0d 3e bd f7 90 15 3e 7e 4a c8 3d 8e 41 25 bd
       -0.04639951 0.14606081 0.09779833 -0.04034572
000370 b8 16 d2 3b 5a e1 2e 3e 50 7c 45 3e 57 aa e8 3d
       0.0064113997 0.17078152 0.19285703 0.11360615
000380 ec 23 90 3c 52 1d 0a be 31 06 f4 bd 3d 62 ed 3c
       0.017595254 -0.13487747 -0.119152434 0.028977508
000390 e8 19 f3 bc e5 35 4c be 14 88 d9 bb 8c d1 c4 3d
       -0.029675439 -0.19942434 -0.006638536 0.096102804
0003a0 79 73 92 3d 9c a8 84 bd 85 9d f2 bd a9 30 fe bb
       0.07150931 -0.06477472 -0.11846451 -0.0077572656
0003b0 3f fe 18 3e 13 2f 20 3c f2 b9 12 bd d1 26 24 b9
       0.14940737 0.009776848 -0.035821863 -0.00015654719
0003c0 82 9a 15 3c 70 21 fa 3c 0b 0b 78 3d 16 42 39 bd
       0.009131076 0.030533522 0.060557406 -0.04522904
0003d0 06 2b ae bc 9b 59 54 bd 27 c2 2e 3c 8a 77 f1 3d
       -0.02126075 -0.051843267 0.010666407 0.117903784
0003e0 bc dc f5 bd 37 77 1f be 13 98 c4 3d a8 84 cd bd
       -0.12004992 -0.1557282 0.09599318 -0.10035068
0003f0 d1 33 c8 bc 71 1f c3 3d 92 31 86 3d 1d 81 f7 bd
       -0.02443877 0.09527481 0.065524235 -0.12085173

cnn.6.bias f4 [10]
000000 a2 7c 2b 3c ba 28 4f bd 20 98 02 3d 5a fb 8f bd
       0.0104667265 -0.05057595 0.03188336 -0.070303634
000010 7a 8f 1c bd 68 d0 f8 bb 81 68 8b bd 71 9b 0f bc
       -0.038222767 -0.0075932033 -0.06807042 -0.008765087
000020 bb 90 a3 bd 0a af 2f 3b
       -0.079865895 0.0026807212
